trained_models/best.pth (torch, 33433 bytes, 37 tensors)

positional_encoder.freq_bands_view f4 [1, 1, 50]
1.0 2.0 4.0 8.0 16.0 32.0 64.0 128.0
256.0 512.0 1024.0 2048.0 4096.0 8192.0 16384.0 32768.0
65536.0 131072.0 262144.0 524288.0 1.048576e+06 2.097152e+06 4.194304e+06 8.388608e+06
1.6777216e+07 3.3554432e+07 6.7108864e+07 1.3421773e+08 2.6843546e+08 5.368709e+08 1.0737418e+09 2.1474836e+09
4.2949673e+09 8.589935e+09 1.717987e+10 3.435974e+10 6.871948e+10 1.3743895e+11 2.748779e+11 5.497558e+11
1.0995116e+12 2.1990233e+12 4.3980465e+12 8.796093e+12 1.7592186e+13 3.5184372e+13 7.0368744e+13 1.4073749e+14
2.8147498e+14 5.6294995e+14
00000000: 0000 803f 0000 0040 0000 8040 0000 0041
00000010: 0000 8041 0000 0042 0000 8042 0000 0043
00000020: 0000 8043 0000 0044 0000 8044 0000 0045
00000030: 0000 8045 0000 0046 0000 8046 0000 0047
00000040: 0000 8047 0000 0048 0000 8048 0000 0049
00000050: 0000 8049 0000 004a 0000 804a 0000 004b
00000060: 0000 804b 0000 004c 0000 804c 0000 004d
00000070: 0000 804d 0000 004e 0000 804e 0000 004f
00000080: 0000 804f 0000 0050 0000 8050 0000 0051
00000090: 0000 8051 0000 0052 0000 8052 0000 0053
000000a0: 0000 8053 0000 0054 0000 8054 0000 0055
000000b0: 0000 8055 0000 0056 0000 8056 0000 0057
000000c0: 0000 8057 0000 0058

proj_input.weight f4 [32, 101]
0.13882294 0.107219696 0.13671355 -0.04339497 0.0077079968 0.062888585 0.07553707 -0.0379182
0.07784981 -0.060046386 0.043845985 0.0139226625 -0.03062969 0.03583708 -0.050835848 -0.084599026
-0.0125230225 -0.07994621 -0.008828641 -0.002910961 -0.022483058 -0.081795 0.06703524 0.0042279456
-0.053028163 0.03155337 -0.0875537 -0.07178365 0.033563394 -0.053992167 -0.03098259 -0.08194632
0.01580531 -0.057160165 0.06952211 0.03943014 -0.068114154 0.048868433 -0.06702049 0.045083757
-0.010494828 -0.029794712 -0.040837564 -0.034660205 0.06034058 0.036383655 0.06220291 -0.064390026
-0.013159473 -0.03900345 -0.048610497 -0.026638929 -0.16342011 -0.1991005 0.021731142 -0.0043141935
-0.06450247 -0.005018083 0.0050437255 0.030844288 -0.03754866 0.08474487 -0.102979854 -0.0602554
0.05140945 -0.0213648 -0.06840644 0.057711557 0.019447139 -0.04841514 -0.08799352 -0.013701491
0.07827947 0.008639502 0.039839644 0.0771179 -0.013805351 -0.0005140689 0.021331262 0.04271841
-0.027440127 -0.0647594 0.011694635 -0.04089768 0.025139308 -0.08241545 -0.07616094 -0.08080165
0.07105309 -0.074750476 -0.047834933 0.051114064 0.07898175 0.06407353 -0.017563973 0.0241141
0.05177116 0.0009924623 -0.05264758 -0.0144130085 -0.029960494 0.03827153 0.0423152 0.13080221
0.065206386 -0.014097114 -0.09689641 0.010446281 0.08004891 0.03622317 0.06721437 -0.06729033
-0.073894195 -0.0096644275 0.085179605 0.031788513 -0.08622981 -0.0074556456 -0.05723024 0.020717746
-0.029640412 -0.047251638 -0.014941962 -0.09445609 0.09141799 -0.07706225 0.056443784 -0.07599221
-0.055433948 0.0030522353 0.0515489 0.06646873 -0.091460384 -0.07045318 0.060609777 -0.075199835
0.037941456 -0.023468448 0.050321456 0.054557763 -0.064763226 0.0727037 -0.06498419 -0.06156828
-0.07181016 0.020098155 0.059383523 -0.0093191 -0.049575772 -0.0057922713 0.038400162 -0.068586685
-0.028642617 -0.015633846 -0.0907924 0.017692339 0.012606941 -0.07988025 0.074657634 0.042519145
-0.05442343 0.037943374 -0.0024401739 -0.05247248 -0.059426066 0.094571315 -0.048679635 -0.041624643
0.03546961 -0.025045536 0.006785432 -0.041284956 0.021916939 0.08952575 -0.026048174 -0.09877603
0.04429594 0.021896869 0.039006095 0.043762553 -0.07993333 -0.046495147 0.052893616 0.10340867
0.046721455 0.049812656 -0.08542886 0.032236647 -0.009778773 0.10571017 -0.021319523 0.055875342
0.05751027 -0.036240604 -0.0611595 0.09286667 0.035308197 -0.016648524 -0.0012422452 -0.077699505
0.057616606 -0.023535531 -0.037898377 0.027446909 -0.03239355 0.16464834 -0.16759872 0.103895545
0.08370814 0.04539735 -0.08428962 0.022983175 -0.001559067 -0.008530864 0.0018661178 -0.0069630616
0.00021416084 -0.059770487 -0.080735505 -0.03732295 -0.10547737 0.035577122 -0.041737787 0.068492465
0.017294401 -0.06288779 0.05926869 -0.060929924 0.06598345 0.0074848365 0.04861152 -0.020447219
0.008025839 -0.089642346 -0.05163422 0.08926828 -0.03677738 0.024696603 -0.02932054 -0.060309302
-0.08393885 -0.053448755 -0.07089268 0.042570487 0.07208881 0.056991834 0.06882676 -0.039248105
0.06649285 0.016970651 0.0038748614 0.006271707 -0.05902079 -0.010229304 0.14671774 0.017404286
00000000: 9a27 0e3e 0096 db3d a3fe 0b3e edbe 31bd
00000010: 5d93 fc3b bbcb 803d 2eb3 9a3d 1d50 1bbd
00000020: b96f 9f3d 33f3 75bd d997 333d e11b 643c
00000030: 1eeb fabc e7c9 123d 4039 50bd 4142 adbd
00000040: 5d2d 4dbc d7ba a3bd 01a6 10bc d2c5 3ebb
00000050: 642e b8bc 2384 a7bd c649 893d 948a 8a3b
00000060: 0f34 59bd 1b3e 013d 5b4f b3bd 4e03 93bd
00000070: c579 093d e426 5dbd 33cf fdbc 79d3 a7bd
00000080: 237a 813c c720 6abd 9c61 8e3d 8081 213d
00000090: 6f7f 8bbd 442a 483d 0a42 89bd bfa9 383d
000000a0: 80f2 2bbc 0a14 f4bc 4a45 27bd dcf7 0dbd
000000b0: af27 773d 0707 153d 7bc8 7e3d ebde 83bd
000000c0: d59a 57bc 15c2 1fbd cd1b 47bd e239 dabc
000000d0: 9a57 27be 00e1 4bbe 8205 b23c 145e 8dbb
000000e0: df19 84bd bb6e a4bb d645 a53b 29ad fc3c
000000f0: a0cc 19bd b88e ad3d 1ae7 d2bd 5ece 76bd
00000100: b792 523d 3c05 afbc ad18 8cbd f462 6c3d
00000110: 9b4f 9f3c f44e 46bd f235 b4bd 387c 60bc
00000120: fd50 a03d b38c 0d3c e52e 233d fdef 9d3d
00000130: d72f 62bc 94c2 06ba e6be ae3c 80f9 2e3d
00000140: 1eca e0bc 94a0 84bd db9a 3f3c 5384 27bd
00000150: f3f0 cd3c 6ec9 a8bd 44fa 9bbd 567b a5bd
00000160: 4884 913d c716 99bd 90ee 43bd fb5c 513d
00000170: 2fc1 a13d fc38 833d 52e2 8fbc ef8a c53c
00000180: ff0d 543d 8215 823a fda4 57bd 8a24 6cbc
00000190: b66f f5bc 9cc2 1c3d b452 2d3d 04f1 053e
000001a0: ed8a 853d 95f7 66bc a071 c6bd e126 2b3c
000001b0: aff0 a33d bf5e 143d b0a7 893d 83cf 89bd
000001c0: d755 97bd 8c57 1ebc a572 ae3d ac34 023d
000001d0: 4199 b0bd 7d4e f4bb 426a 6abd 43b8 a93c
000001e0: 73d0 f2bc ef8a 41bd 22cf 74bc 3272 c1bd
000001f0: 5b39 bb3d d0d2 9dbd 9931 673d cea1 9bbd
00000200: b50e 63bd 0308 483b f024 533d c220 883d
00000210: 954f bbbd c249 90bd f541 783d 5f02 9abd
00000220: 8068 1b3d e740 c0bc df1d 4e3d f677 5f3d
00000230: 95a2 84bd ade5 943d 6e16 85bd 052f 7cbd
00000240: 3511 93bd e3a4 a43c 233c 733d 23af 18bc
00000250: f70f 4bbd 18cd bdbb 7d49 1d3d 2d77 8cbd
00000260: eca3 eabc 8d12 80bc 5ef1 b9bd 86ef 903c
00000270: 588d 4e3c 4298 a3bd 1ae6 983d 8e28 2e3d
00000280: 1aeb 5ebd 836a 1b3d 53eb 1fbb 62ed 56bd
00000290: bf68 73bd 9bae c13d 4c64 47bd 9a7e 2abd
000002a0: 9548 113d 4c2c cdbc 5458 de3b 6a1a 29bd
000002b0: 278b b33c 4759 b73d fb62 d5bc 164b cabd
000002c0: a96f 353d 1061 b33c dbc4 1f3d 5d40 333d
000002d0: 16b4 a3bd b271 3ebd faa6 583d edc7 d33d
000002e0: ff5e 3f3d 5b08 4c3d 53f5 aebd 930a 043d
000002f0: 2637 20bc 937e d83d 48a6 aebc 8bdd 643d
00000300: e48f 6b3d 0771 14bd 6282 7abd e130 be3d
00000310: 549f 103d 7c62 88bc d5d2 a2ba eb20 9fbd
00000320: 64ff 6b3d 96cd c0bc 543b 1bbd 57d8 e03c
00000330: 19af 04bd 9399 283e 009f 2bbe 30c7 d43d
00000340: 2c6f ab3d 92f2 393d 09a0 acbd 3647 bc3c
00000350: 9c59 ccba 09c5 0bbc 8698 f43a 652a e4bb
00000360: 5d90 6039 e6d1 74bd a858 a5bd f3df 18bd
00000370: 8504 d8bd 51b9 113d 3ef5 2abd c745 8c3d
00000380: fdac 8d3c 50cb 80bd bac3 723d a891 79bd
00000390: 5522 873d 5c43 f53b e01c 473d ed80 a7bc
000003a0: cf7e 033c 6896 b7bd 677e 53bd 4ad2 b63d
000003b0: e1a3 16bd 8850 ca3c a131 f0bc e306 77bd
000003c0: 22e8 abbd 15ed 5abd 2e30 91bd 645e 2e3d
000003d0: 4ca3 933d 4570 693d 0bf5 8c3d 9fc2 20bd
000003e0: 672d 883d 0906 8b3c 63f1 7d3b e482 cd3b
000003f0: c9bf 71bd d098 27bc 2d3d 163e 6f93 8e3c

proj_input.bias f4 [32]
-0.019615436 0.074030265 0.11809 -0.11300127 -0.019565031 0.082093656 0.0753824 0.03158584
0.07098024 -0.062109623 0.0055699 -0.014400432 0.041363277 0.082375936 0.0955518 -0.057559
0.09359936 -0.12816586 0.074159615 0.045020737 0.085082546 -0.04109938 0.0101711685 0.039878096
-0.024709528 -0.11727127 0.024715241 0.09035671 0.07850602 0.0345242 0.04770006 0.007277664
00000000: 8db0 a0bc 2e9d 973d 2bd9 f13d 366d e7bd
00000010: d846 a0bc b820 a83d 1662 9a3d 2760 013d
00000020: 175e 913d a966 7ebd b583 b63b caef 6bbc
00000030: 8a6c 293d b7b4 a83d aab0 c33d fcc2 6bbd
00000040: 05b1 bf3d e93d 03be ffe0 973d aa67 383d
00000050: c23f ae3d d357 28bd f9a4 263c 3757 233d
00000060: a36b cabc eb2b f0bd 9e77 ca3c f00c b93d
00000070: c4c7 a03d 3f69 0d3d 2361 433d 7879 ee3b

encoder_layers.0.weight f4 [16, 32]
0.08982735 -0.053893663 0.18263157 0.12311123 -0.07454067 0.032837775 -0.07191055 -0.12078094
-0.091939986 0.1240326 0.12498455 0.099107035 0.12179884 -0.05240038 0.10942192 -0.13202502
0.15866935 -0.18409128 -0.08823008 0.18494645 -0.098638855 0.107916854 0.14674543 -0.1302527
0.012687161 -0.036101338 -0.10868809 0.10691818 -0.017042339 -0.027739886 0.12063446 -0.04060958
0.17748596 0.09058309 -0.15292515 0.03383547 -0.03519689 -0.025837975 0.115013346 -0.046511207
-0.16298644 -0.05950005 -0.17857993 -0.1823355 -0.024789575 0.16296606 -0.027041707 0.059602823
0.20121248 -0.15769744 -0.14242253 -0.111833826 0.15632302 0.066321716 0.011472165 0.13449965
0.12720871 0.03291443 0.048535056 0.011627219 0.10039798 -0.14357202 0.028489906 0.0037078385
-0.15143691 0.04377125 0.0029011082 0.14503933 0.034261942 -0.12230891 -0.12415712 -0.04734212
0.18553688 0.1828939 0.061216548 0.17951663 -0.05814806 0.1115676 -0.16518019 -0.23526458
0.06412565 0.046818938 0.106238514 -0.07413504 -0.16296835 -0.02253829 -0.013558492 0.105005704
-0.062357027 0.07994337 0.14003678 -0.11724854 -0.078596264 -0.0396532 0.038583502 -0.07692842
0.11717401 -0.007521889 0.04088221 -0.07521416 0.11276764 0.0029037546 0.005521974 -0.0076164943
-0.102237225 -0.055593453 -0.16008049 0.063803636 0.09465099 -0.09481434 0.0012467316 0.20273603
0.00225305 0.008211397 -0.11274945 0.044005435 0.041928217 0.086276524 0.13634147 0.13788714
0.14407551 -0.20228675 0.15979055 0.161797 -0.09539221 -0.034788735 0.08946826 -0.010778557
-0.23505682 0.029105512 0.0024679748 -0.10479654 0.080554634 -0.043396387 -0.01411103 -0.105012536
0.069868475 -0.09501984 0.026859637 0.039471235 0.018039824 0.10805571 -0.097107984 -0.032963846
-0.22505951 -0.033223026 0.011462275 0.009382032 -0.08353058 0.12652288 0.038282994 0.05846822
-0.10669674 0.105043486 -0.13089982 0.009094734 -0.01883268 0.2449545 0.16178107 -0.22706388
-0.09434404 0.016545154 -0.004320234 -0.07876875 0.13102634 -0.20141572 0.07939379 0.1981532
-0.051263228 -0.022957118 -0.070869945 0.17503218 0.08402533 -0.0011777421 0.010440793 0.13766354
-0.07152798 0.19500396 0.19882146 0.10352243 -0.16686417 0.081428975 0.05879286 0.16112418
-0.1401248 -0.16249876 -0.060973715 -0.031652644 -0.062670104 -0.14790258 -0.0354641 0.11067451
0.17329289 0.12978226 -0.03142295 -0.019436074 -0.094105445 -0.028609466 -0.004555309 0.15832354
-0.02547259 0.048088226 0.14332075 -0.19497287 -0.15762216 0.021070514 0.16395696 0.091561325
-0.123525985 0.08754981 -0.119703196 0.0027333968 0.14504962 -0.16496132 0.07377717 0.12965374
0.0021971432 0.05081837 -0.105453774 0.027319215 0.07252099 -0.02168837 0.00023311096 0.051498216
-0.1734003 0.14201054 -0.005526556 -0.0934465 -0.048818704 0.07136493 -0.013701421 0.117063805
0.08132368 -0.013344249 0.061136823 -0.04650557 -0.14503138 0.18414736 0.08743107 -0.087229654
-0.18484303 -0.1513975 -0.08646599 -0.10397656 -0.06369607 0.033731103 0.017936062 0.039403
-0.21893144 0.10018502 0.1055363 -0.09875594 0.093336865 0.026005818 -0.075697646 -0.12799524
00000000: 67f7 b73d 9abf 5cbd c503 3b3e be21 fc3d
00000010: c7a8 98bd e780 063d d745 93bd ff5b f7bd
00000020: 084b bcbd ce04 fe3d e6f7 ff3d a1f8 ca3d
00000030: ac71 f93d c8a1 56bd 9918 e03d 9131 07be
00000040: 387a 223e 6d82 3cbe f9b1 b4bd 9a62 3d3e
00000050: 2b03 cabd 8303 dd3d 6f44 163e f760 05be
00000060: cfdd 4f3c ffde 13bd dd97 debd ebf7 da3d
00000070: 609c 8bbc c23e e3bc 330f f73d 3b56 26bd
00000080: e1be 353e a183 b93d 6998 1cbe 1097 0a3d
00000090: 9d2a 10bd 29aa d3bc 1e8c eb3d 8982 3ebd
000000a0: ebe5 26be 53b6 73bd a8dd 36be 28b6 3abe
000000b0: 8213 cbbc 93e0 263e 9286 ddbc 1722 743d
000000c0: a50a 4e3e 707b 21be 36d7 11be 2209 e5bd
000000d0: 2413 203e aed3 873d bff5 3b3c 47ba 093e
000000e0: 0043 023e 48d1 063d b2cc 463d 1780 3e3c
000000f0: 759d cd3d 8b04 13be aa63 e93c 35ff 723b
00000100: 4712 1bbe 7b49 333d 8520 3e3b 3185 143e
00000110: 4056 0c3d 187d fabd 1746 febd d0e9 41bd
00000120: 61fd 3d3e 8a48 3b3e 34be 7a3d 35d3 373e
00000130: a92c 6ebd 8e7d e43d ff24 29be 33e9 70be
00000140: 4f54 833d 37c5 3f3d 9493 d93d 1dd4 97bd
00000150: 2de1 26be 38a2 b8bc 7024 5ebc 3b0d d73d
00000160: 156a 7fbd 59b9 a33d cd65 0f3e 0120 f0bd
00000170: 14f7 a0bd 656b 22bd bc09 1e3d a68c 9dbd
00000180: edf8 ef3d 2e7a f6bb 1b74 273d e209 9abd
00000190: b8f2 e63d eb4c 3e3b adf1 b43b c993 f9bb
000001a0: c061 d1bd f6b5 63bd 24ec 23be 7bab 823d
000001b0: 61d8 c13d 052e c2bd 5f69 a33a 099a 4f3e
000001c0: e8a7 133b 1889 063c 2fe9 e6bd 0b3f 343d
000001d0: ecbc 2b3d bfb1 b03d 199d 0b3e 4932 0d3e
000001e0: 8888 133e 4224 4fbe 22a0 233e 1dae 253e
000001f0: fe5c c3bd a27e 0ebd 233b b73d 8b98 30bc
00000200: bcb2 70be af6e ee3c bfbd 213b 929f d6bd
00000210: d4f9 a43d 69c0 31bd f331 67bc d010 d7bd
00000220: 3417 8f3d c399 c2bd be08 dc3c 97ac 213d
00000230: 41c8 933c 504c dd3d 8de0 c6bd 1905 07bd
00000240: 0076 66be de14 08bd 44cc 3b3c 18b7 193c
00000250: 1512 abbd 378f 013e a1ce 1c3d 5f7c 6f3d
00000260: d283 dabd 0a21 d73d 9a0a 06be 1402 153c
00000270: fe46 9abc 5ad5 7a3e f0a9 253e 6f83 68be
00000280: 7337 c1bd b489 873c c090 8dbb 8351 a1bd
00000290: c52b 063e ec3f 4ebe 3699 a23d ace8 4a3e
000002a0: 64f9 51bd 9110 bcbc 4324 91bd a33b 333e
000002b0: 7915 ac3d 785e 9aba dc0f 2b3c acf7 0c3e
000002c0: 437d 92bd 1eaf 473e da97 4b3e 9103 d43d
000002d0: 71de 2abe 3cc4 a63d c8d0 703d bdfd 243e
000002e0: e07c 0fbe 1366 26be 93bf 79bd 34a6 01bd
000002f0: 2f59 80bd c673 17be ce42 11bd 51a9 e23d
00000300: b173 313e a4e5 043e 5ab5 00bd 6738 9fbc
00000310: 5bba c0bd 665e eabc b444 95bb 911f 223e
00000320: e5ab d0bc 29f8 443d adc2 123e f8a6 47be
00000330: b467 21be 129c ac3c 55e4 273e 8184 bb3d
00000340: 31fb fcbd 514d b33d f326 f5bd ca22 333b
00000350: e387 143e 9feb 28be 7c18 973d f3c3 043e
00000360: f2fd 0f3b ec26 503d 26f8 d7bd 8ccc df3c
00000370: e385 943d cfab b1bc 3f6f 7439 cbef 523d
00000380: d98f 31be 366b 113e 1d18 b5bb e160 bfbd
00000390: 1ff6 47bd c727 923d ed7b 60bc 26bf ef3d
000003a0: 088d a63d d6a1 5abc 9b6a 7a3d a07c 3ebd
000003b0: 1b83 14be 2091 3c3e 100f b33d 76a5 b2bd
000003c0: 7e47 3dbe f207 1bbe 1515 b1bd aaf1 d4bd
000003d0: 1673 82bd a029 0a3d a6ee 923c 0a65 213d
000003e0: 902f 60be ce2d cd3d 6a23 d83d 8e40 cabd
000003f0: 6627 bf3d 270a d53c 5e07 9bbd 2f11 03be

encoder_layers.0.bias f4 [16]
0.16907799 0.06738938 -0.08552005 -0.007212392 0.08976482 -0.04164935 -0.17138194 0.08070978
0.00085658993 -0.12308185 0.08602735 -0.06179918 -0.20765914 -0.047272276 0.04615846 0.15504551
00000000: c822 2d3e 7103 8a3d 2325 afbd ee55 ecbb
00000010: 9ed6 b73d 8298 2abd bf7e 2fbe 2b4b a53d
00000020: c78c 603a 5612 fcbd 1b2f b03d 2321 7dbd
00000030: 99a4 54be 93a0 41bd a710 3d3d 40c4 1e3e

encoder_layers.1.weight f4 [8, 16]
0.25117695 0.1874872 -0.11732818 0.03461739 0.20968865 0.17215492 0.08387074 -0.04648013
0.12427984 -0.19356674 0.24538289 0.13548993 0.1455865 0.17613293 -0.06469097 0.054969408
0.139042 -0.07848258 0.005521302 -0.19716364 0.16343933 -0.14368188 -0.22306898 0.14365727
-0.018894812 0.2002992 -0.18463182 -0.09987203 0.09612142 0.17153768 0.19947018 -0.09031753
-0.12051077 0.15885265 -0.12018314 0.13973385 -0.21590889 0.10954008 0.23845334 0.108380385
0.10181275 0.12840168 0.14939916 0.12861307 -0.12982489 0.10205822 -0.22335707 0.27460146
0.38304874 0.23910071 0.034623515 0.31909314 0.32407913 0.2000114 -0.11815126 0.39333493
-0.122975476 0.2643666 0.34992662 0.017799085 -0.010347703 0.043464705 -0.006264776 -0.045103855
-0.2158093 -0.107634395 -0.03498515 0.04836488 -0.049246985 -0.20793301 0.15717341 -0.074793704
-0.20228541 0.078741245 0.13987 -0.045402586 0.15461898 0.09930672 -0.15870237 -0.0034304494
0.020538682 0.11659869 0.05189301 0.079305135 0.1290581 0.038756553 0.024717083 -0.21241291
-0.035599075 0.006751449 0.02443553 -0.12440892 -0.043445624 -0.10037683 -0.054370854 -0.046041813
0.03757764 0.10064393 0.08818257 -0.06683371 -0.10084893 -0.055627204 0.18098636 -0.08647491
0.07216683 0.10425954 -0.012413815 -0.0005252597 -0.051151108 0.08264303 0.08051168 0.003220042
-0.017661355 0.1152102 0.17541105 0.021781975 0.036388233 0.047365535 0.21143141 -0.11482686
0.0064479467 0.1946101 -0.024885394 -0.11083203 -0.1499303 0.12487746 0.05176288 0.08239695
00000000: 449a 803e a5fc 3f3e c249 f0bd f7ca 0d3d
00000010: 9fb8 563e 6149 303e 6cc4 ab3d f361 3ebd
00000020: 6e86 fe3d 5c36 46be a745 7b3e dfbd 0a3e
00000030: a114 153e 315c 343e b37c 84bd 9a27 613d
00000040: 0761 0e3e 7abb a0bd 0aec b43b 44e5 49be
00000050: a45c 273e 5821 13be 326c 64be e41a 133e
00000060: 4bc9 9abc 3c1b 4d3e 2010 3dbe b589 ccbd
00000070: 4fdb c43d 93a7 2f3e e941 4c3e 66f8 b8bd
00000080: 5ace f6bd 45aa 223e 9422 f6bd 6416 0f3e
00000090: 3817 5dbe 8d56 e03d 1d2d 743e 89f6 dd3d
000000a0: 3483 d03d bb7b 033e 18fc 183e 25b3 033e
000000b0: d1f0 04be e603 d13d b7b7 64be 9098 8c3e
000000c0: f71e c43e d1d6 743e 63d1 0d3d 2d60 a33e
000000d0: b3ed a53e cacf 4c3e 4af9 f1bd 3263 c93e
000000e0: 91da fbbd 0f5b 873e 9529 b33e 63cf 913c
000000f0: 6989 29bc 0c08 323d c048 cdbb d2be 38bd
00000100: 1dfd 5cbe 6c6f dcbd 974c 0fbd 411a 463d
00000110: 35b7 49bd 64ec 54be 11f2 203e 712d 99bd
00000120: e823 4fbe 1743 a13d 153a 0f3e 10f8 39bd
00000130: 7054 1e3e 5261 cb3d e082 22be 64d1 60bb
00000140: bd40 a83c 4bcb ee3d c48d 543d bb6a a23d
00000150: ce27 043e 31bf 1e3d 7b7b ca3c c582 59be
00000160: 56d0 11bd 423b dd3b 052d c83c 1bca febd
00000170: 0af4 31bd 5e92 cdbd f9b3 5ebd 5796 3cbd
00000180: 03eb 193d 681e ce3d 1099 b43d 1de0 88bd
00000190: e289 cebd 5ad9 63bd 7d54 393e c219 b1bd
000001a0: 34cc 933d 0786 d53d 5063 4bbc 95b1 09ba
000001b0: d383 51bd c040 a93d 4fe3 a43d 5707 533b
000001c0: 8cae 90bc 53f3 eb3d f49e 333e 1d70 b23c
000001d0: d40b 153d 5d02 423d 7a81 583e 582a ebbd
000001e0: 4c49 d33b df47 473e 74dc cbbc e7fb e2bd
000001f0: 5487 19be c1bf ff3d 5005 543d bbbf a83d

encoder_layers.1.bias f4 [8]
0.29203752 0.05804123 -0.089786686 0.050343126 -0.20661576 -0.107234955 0.052322768 -0.08025177
00000000: f185 953e a4bc 6d3d 15e2 b7bd 9834 4e3d
00000010: 1593 53be 009e dbbd 6650 563d 0a5b a4bd

encoder_layers.2.weight f4 [4, 8]
0.20017016 -0.20336469 0.25008225 -0.17886694 -0.36122018 0.08033151 0.1329518 -0.037822545
-0.14746767 -0.30221578 -0.08834573 -0.1089168 -0.20320521 -0.22727905 0.27920017 0.1554344
0.20804453 -0.12846816 0.23451392 0.4120355 0.34924114 -0.20164347 0.008292045 -0.05427698
-0.31395504 -0.17242424 -0.17168555 -0.1274887 -0.3444493 -0.1847265 0.18814781 -0.26971027
00000000: 68f9 4c3e d53e 50be c80a 803e e528 37be
00000010: daf1 b8be d984 a43d 8424 083e d0eb 1abd
00000020: c401 17be 07bc 9abe 9bee b4bd c50f dfbd
00000030: 0715 50be d7bb 68be 53f3 8e3e 322a 1f3e
00000040: a009 553e 288d 03be 6b24 703e 51f6 d23e
00000050: bccf b23e a07b 4ebe 5cdb 073c 8a51 5ebd
00000060: b7be a0be fb8f 30be 56ce 2fbe 668c 02be
00000070: a95b b0be f228 3dbe d2a9 403e 7717 8abe

encoder_layers.2.bias f4 [4]
0.16350658 0.15254952 0.21069045 0.15699953
00000000: 456e 273e f135 1c3e 3dbf 573e 7cc4 203e

encoder_layers.3.weight f4 [2, 4]
-0.06539951 -0.30635643 -0.16923273 -0.1054353 -0.09573757 -0.33827412 0.24521099 -0.051746752
00000000: 2ef0 85bd c0da 9cbe 584b 2dbe 76ee d7bd
00000010: 0f12 c4bd 4432 adbe 9718 7b3e 67f4 53bd

encoder_layers.3.bias f4 [2]
0.466444 -0.29044935
00000000: bfd1 ee3e c7b5 94be

decoder_layers.0.weight f4 [4, 2]
0.11067594 -0.4642873 0.15393741 -0.18604854 -0.34943834 -0.10133842 0.3924869 -0.002221834
00000000: 11aa e23d 11b7 edbe c5a1 1d3e 8283 3ebe
00000010: 95e9 b2be 848a cfbd 0bf4 c83e 309c 11bb

decoder_layers.0.bias f4 [4]
-0.46077067 -0.08448139 0.028592927 -0.6773363
00000000: 22ea ebbe 9404 adbd b73b ea3c e965 2dbf

decoder_layers.1.weight f4 [8, 4]
-0.32421345 -0.17442389 0.26544058 0.14522481 -0.00021075143 -0.07741485 0.16912994 -0.01806944
-0.4431682 0.4024283 0.10785038 -0.5107655 0.11381522 0.27345288 0.54923576 0.014323631
0.04208752 0.16239545 -0.4917697 0.010824879 0.07078546 -0.16267745 0.44964233 -0.23325568
0.086440325 -0.19566932 -0.65304923 0.5699684 -0.14050193 -0.37974378 0.28429422 0.45056954
00000000: 4eff a5be 2d9c 32be d4e7 873e d0b5 143e
00000010: 28fd 5cb9 ad8b 9ebd 6630 2d3e 5d06 94bc
00000020: f1e6 e2be 150b ce3e a9e0 dc3d 87c1 02bf
00000030: f417 e93d 0402 8c3e b79a 0c3f aaad 6a3c
00000040: f763 2c3d fe4a 263e 3dc9 fbbe d55a 313c
00000050: f8f7 903d eb94 26be 8537 e63e 94da 6ebe
00000060: a007 b13d 8a5d 48be 3c2e 27bf 73e9 113f
00000070: bddf 0fbe c76d c2be 038f 913e 0db1 e63e

decoder_layers.1.bias f4 [8]
-0.38620827 0.3733322 0.09501051 0.39039722 0.07522311 0.12118488 0.046621986 -0.41145316
00000000: 17bd c5be 6625 bf3e df94 c23d 25e2 c73e
00000010: 930e 9a3d c72f f83d b2f6 3e3d fda9 d2be

decoder_layers.2.weight f4 [16, 8]
0.017183013 0.06915744 -0.3223674 -0.058376804 0.28907186 -0.2737514 0.20727819 -0.15076733
-0.48382252 -0.0486266 0.05765355 -0.2899851 0.123802364 -0.41609448 0.12315356 0.0853309
-0.08559462 -0.1180983 -0.115690425 -0.16429998 0.070268616 0.02428518 -0.26860648 0.015381327
-0.33187935 -0.16421011 0.14362498 -0.006487822 -0.25112525 0.11425307 0.32774705 0.11881046
-0.44291127 -0.41458082 -0.436577 -0.40332693 0.43402874 0.04048655 -0.37198126 0.2651527
-0.1547264 0.11879686 0.08411588 0.26675332 -0.35374728 -0.16467576 0.099536255 0.05059682
0.22061428 -0.27225468 0.27712598 -0.2765113 -0.15387298 0.3461059 -0.0824888 -0.06002221
0.13551316 -0.0715277 0.18021825 0.2389476 0.16371492 0.19632684 -0.10038335 -0.2747412
0.306516 0.3767328 0.20054987 0.41804257 0.0023740728 -0.12648024 -0.19224347 0.31041375
0.20410001 0.41259965 0.3832638 0.08820708 0.4059926 -0.005766469 0.05169954 0.35248595
0.25913695 -0.12189633 0.22846559 -0.2193616 -0.26488724 0.071260005 -0.20096718 0.2421744
-0.28595743 0.16902451 0.2122134 -0.32843772 -0.050878696 0.13617809 0.28332493 -0.25791872
0.18858391 -0.09011043 0.36478576 0.36778188 0.2463994 0.28066355 -0.16420114 -0.034775414
0.093472585 -0.16727696 0.063112 0.1668259 0.19897565 -0.28416154 0.30020967 -0.014946389
0.27624518 -0.049737386 0.37228206 -0.093099006 -0.41419205 -0.09654735 0.04501152 -0.16555803
0.11776008 0.23704153 0.18213508 -0.14395656 0.24706124 0.08990301 -0.12341106 -0.046194125
00000000: 64c3 8c3c 6aa2 8d3d 570d a5be 841c 6fbd
00000010: 3a01 943e 2529 8cbe bc40 543e c062 1abe
00000020: 96b7 f7be b02c 47bd 2126 6c3d ed78 94be
00000030: 188c fd3d 560a d5be ef37 fc3d f8c1 ae3d
00000040: 3b4c afbd 86dd f1bd 1aef ecbd 413e 28be
00000050: fee8 8f3d b7f1 c63c ca86 89be f601 7c3c
00000060: 17ec a9be b226 28be 6d12 133e cc97 d4bb
00000070: 7d93 80be 83fd e93d 76ce a73e e652 f33d
00000080: 44c5 e2be f043 d4be 0587 dfbe de80 cebe
00000090: 0439 de3e 3ad5 253d 5474 bebe 18c2 873e
000000a0: 9970 1ebe c54b f33d f244 ac3d e493 883e
000000b0: 5d1e b5be c3a0 28be aad9 cb3d 9c3e 4f3d
000000c0: b6e8 613e f764 8bbe 75e3 8d3e e492 8dbe
000000d0: e190 1dbe cb34 b13e e3ef a8bd d9d9 75bd
000000e0: f6c3 0a3e 1d7d 92bd 228b 383e aeae 743e
000000f0: e2a4 273e e709 493e c995 cdbd e1aa 8cbe
00000100: aaef 9c3e 1fe3 c03e f25c 4d3e ad09 d63e
00000110: 5596 1b3b 0984 01be 79db 44be 8dee 9e3e
00000120: 98ff 503e 4340 d33e 273b c43e eaa5 b43d
00000130: 43de cf3e a6f4 bcbb e6c2 533d 0a79 b43e
00000140: 99ad 843e c8a4 f9bd e2f2 693e 54a0 60be
00000150: 4d9f 87be c4f0 913d 57ca 4dbe 91fc 773e
00000160: 0369 92be c314 2d3e 784e 593e fd28 a8be
00000170: 2e66 50bd 4572 0b3e f70f 913e ec0d 84be
00000180: 241c 413e d18b b8bd 33c5 ba3e e84d bc3e
00000190: 2050 7c3e 22b3 8f3e 5824 28be aa70 0ebd
000001a0: 8e6e bf3d a74a 2bbe dd40 813d 69d4 2a3e
000001b0: 46c0 4b3e 9f7d 91be 15b5 993e b3e1 74bc
000001c0: 0270 8d3e 6eb9 4bbd c19b be3e b1aa bebd
000001d0: fb10 d4be 9eba c5bd 005e 383d 0b88 29be
000001e0: 322c f13d 04bb 723e 9e81 3a3e 5969 13be
000001f0: 9ffd 7c3e 121f b83d f0be fcbd 0d36 3dbd

decoder_layers.2.bias f4 [16]
-0.019442862 0.02370197 0.13243058 0.24132316 -0.3704543 0.28560987 0.08638015 -0.114211366
0.01896858 0.17766467 0.11683078 0.3230579 -0.108294316 0.2757472 0.20754203 0.014444185
00000000: a346 9fbc a22a c23c e29b 073e 6b1d 773e
00000010: 30ac bdbe 753b 923e 13e8 b03d a6e7 e9bd
00000020: ff63 9b3c baed 353e fa44 ef3d d867 a53e
00000030: 69c9 ddbd bd2e 8d3e e685 543e 4ea7 6c3c

decoder_layers.3.weight f4 [32, 16]
-0.15258731 0.09240137 0.017926179 -0.082636826 0.16966482 0.11743859 -0.10104036 0.17334744
-0.10088794 0.087192774 -0.14325732 0.20095861 0.07139649 -0.13245158 -0.0029225857 -0.17745198
-0.048917677 0.008735879 -0.2812023 -0.20964411 0.05055285 -0.21785368 -0.10490211 0.20008
-0.08886014 -0.2288428 0.09318897 0.13441889 0.0060683032 -0.191755 0.16915902 -0.007543807
0.20762801 -0.18435319 0.14781539 -0.14608537 0.02860082 0.04508792 -0.116878755 0.10163137
0.021294374 -0.030417837 -0.10494669 0.24528754 0.022190114 0.15423737 0.10897329 -0.3474989
0.003432006 -0.24832146 0.049538225 -0.004229191 0.16585356 -0.1216496 0.19346 -0.00031509704
-0.118364185 -0.043611992 -0.14918065 -0.028823145 -0.16979463 -0.058027625 -0.06884514 -0.15515636
-0.18002144 0.102579586 -0.11399348 0.14975715 -0.18256475 0.045227244 -0.2816577 0.17853867
-0.15093304 -0.1084169 0.028360069 -0.16662242 -0.07803789 -0.2558174 0.16405518 0.008142814
-0.0078064227 -0.13420342 -0.09805251 0.12414413 0.23289017 -0.1494134 -0.21253414 0.20156455
-0.15834202 -0.022797951 -0.069543 -0.20294903 0.17354928 0.027210256 -0.25956088 -0.08464481
0.10335904 -0.034289684 0.2902803 -0.11666642 -0.19975819 0.16162924 0.17723021 0.23374315
-0.041370764 0.2018283 0.084457725 0.2231249 0.11255936 -0.086491406 -0.1725713 -0.034381155
-0.21380232 -0.22938511 0.18049672 0.2640681 0.17034033 -0.11332712 -0.18121429 0.22822878
-0.09737669 -0.2297838 0.182976 0.15937226 -0.16723022 -0.09834033 0.09046482 -0.18674633
0.22862954 -0.22333506 -0.122253895 0.26287973 0.16370861 -0.16830342 0.022488749 -0.14843415
-0.1787238 0.051111776 -0.16201407 -0.27072978 0.20451456 -0.20099501 0.060805224 -0.0009062937
-0.023468867 0.0637128 -0.11872581 -0.16801228 -0.088814616 0.21629384 -0.19416367 -0.17278376
-0.2256472 -0.1918175 0.09240758 0.16567269 -0.027427427 -0.19407153 -0.03607362 -0.045956023
0.09459422 0.09052759 0.10183333 0.17202255 -0.002574077 0.014484025 -0.12984137 -0.12875324
0.18645045 -0.23889546 -0.13287677 -0.103322946 0.21677381 0.16090183 -0.20705211 -0.1372838
0.031686384 -0.051595267 -0.08575353 0.058912557 0.2129243 -0.052834667 0.19735529 0.052067876
-0.3146633 0.1788999 0.08460475 -0.05309089 -0.06484521 -0.20044567 -0.20440634 0.02865798
-0.029506193 -0.24750149 0.0044875476 -0.06956785 0.22792108 -0.0042997547 -0.09245701 0.14143807
-0.048807047 0.17072268 0.026314277 -0.21087979 -0.026780313 0.11012045 0.19417605 -0.10872798
0.24105178 0.081242256 -0.22242793 -0.09615966 0.09045591 -0.08886199 0.13825862 0.03869748
-0.07328046 0.21690622 -0.25191176 0.01901574 0.029842356 -0.23066548 0.14644875 0.14106435
0.15348168 0.20886756 0.053381726 0.09144995 -0.10537461 0.12279657 0.13906242 0.07877316
-0.021905625 0.09180108 0.0048218807 0.11508747 0.09918053 0.19974032 -0.013511418 -0.24983902
0.085511014 0.028975047 -0.024723377 -0.048754837 -0.19496799 -0.09275848 0.1894149 0.19607234
-0.19271672 0.039232466 0.023651034 -0.09817625 0.03737891 0.013437165 0.081162594 0.17314091
00000000: d93f 1cbe ee3c bd3d ecd9 923c 7f3d a9bd
00000010: 9dbc 2d3e a583 f03d 40ee cebd fe81 313e
00000020: 569e cebd 2092 b23d 0cb2 12be 18c8 4d3e
00000030: 5338 923d 63a1 07be da88 3fbb f9b5 35be
00000040: e75d 48bd ef20 0f3c bff9 8fbe f2ac 56be
00000050: 8110 4f3d 0915 5fbe ebd6 d6bd c6e1 4c3e
00000060: 4efc b5bd c455 6abe dcd9 be3d 1ba5 093e
00000070: 9ed8 c63b 6c5b 44be 0638 2d3e 0a32 f7bb
00000080: 709c 543e 15c7 3cbe eb5c 173e 6797 15be
00000090: 444c ea3c 1cae 383d 215e efbd 1c24 d03d
000000a0: 8a71 ae3c d42e f9bc 4aee d6bd a82c 7b3e
000000b0: 0bc8 b53c 67f0 1d3e 632d df3d 60eb b1be
000000c0: 82eb 603b fb47 7ebe 98e8 4a3d 0795 8abb
000000d0: 84d5 293e 6d23 f9bd 611a 463e 9c33 a5b9
000000e0: ec68 f2bd 7da2 32bd d0c2 18be 841e ecbc
000000f0: a5de 2dbe 60ae 6dbd aefe 8cbd 4fe1 1ebe
00000100: 8a57 38be 3f15 d23d 6a75 e9bd f059 193e
00000110: 41f2 3abe 3440 393d 7035 90be d7d2 363e
00000120: 318e 1abe ae09 debd 6053 e83c 119f 2abe
00000130: 54d2 9fbd 80fa 82be 15fe 273e 7069 053c
00000140: 05cd ffbb 9f6c 09be c1cf c8bd 473f fe3d
00000150: c37a 6e3e d4ff 18be 8da2 59be f066 4e3e
00000160: 6924 22be c5c2 babc 8f6c 8ebd dfd1 4fbe
00000170: e7b6 313e 0be8 de3c 2ae5 84be 425a adbd
00000180: e8ad d33d 5773 0cbd 9f9f 943e ceee eebd
00000190: 698d 4cbe 2382 253e d67b 353e 5d5a 6f3e
000001a0: 6474 29bd 14ac 4e3e 2cf8 ac3d db7a 643e
000001b0: 8685 e63d 6822 b1bd 88b6 30be 41d3 0cbd
000001c0: ffee 5abe eee3 6abe 22d4 383e ef33 873e
000001d0: b26d 2e3e 0d18 e8bd 3d90 39be ceb4 693e
000001e0: 6e6d c7bd 724c 6bbe 0f5e 3b3e 7b32 233e
000001f0: 663e 2bbe a866 c9bd 9f45 b93d 6e3a 3fbe
00000200: dd1d 6a3e f2b1 64be 4060 fabd 2c98 863e
00000210: 3ba3 273e bb57 2cbe 533a b83c 1fff 17be
00000220: 5f03 37be 955a 513d 04e7 25be 189d 8abe
00000230: 446c 513e a3d1 4dbe e60e 793d 5794 6dba
00000240: c841 c0bc db7b 823d 8426 f3bd 690b 2cbe
00000250: 70e4 b5bd 227c 5d3e d7d2 46be 3aee 30be
00000260: 0f10 67be cf6b 44be 2f40 bd3d 1aa6 293e
00000270: 7caf e0bc b0ba 46be efc1 13bd 623c 3cbd
00000280: 9dba c13d 8766 b93d fe8d d03d ae26 303e
00000290: d9b1 28bb 674e 6d3c 23f5 04be e4d7 03be
000002a0: deec 3e3e 03a1 74be d910 08be fb9a d3bd
000002b0: f4f9 5d3e 73c3 243e 7805 54be 2094 0cbe
000002c0: 95c9 013d 8f55 53bd 8c9f afbd 4b4e 713d
000002d0: d408 5a3e 2a69 58bd 8117 4a3e 2045 553d
000002e0: 8c1b a1be 8931 373e 4145 ad3d d575 59bd
000002f0: 91cd 84bd a141 4dbe e54f 51be 24c4 ea3c
00000300: f9b6 f1bc 0871 7dbe 470c 933b 9779 8ebd
00000310: 2564 693e f5e4 8cbb 1a5a bdbd 24d5 103e
00000320: e6e9 47bd edd1 2e3e 0a91 d73c dff0 57be
00000330: 6362 dbbc d586 e13d 16d6 463e c6ac debd
00000340: 47d6 763e 5762 a63d 26c4 63be 5bef c4bd
00000350: f340 b93d 46fd b5bd ab93 0d3e 4081 1e3d
00000360: 1114 96bd aa1c 5e3e 94fa 80be e6c6 9b3c
00000370: f577 f43c 9233 6cbe a9f6 153e 2c73 103e
00000380: 4d2a 1d3e 61e1 553e cca6 5a3d 1d4a bb3d
00000390: a5ce d7bd c57c fb3d 6166 0e3e d353 a13d
000003a0: 6d73 b3bc 3402 bc3d de00 9e3b fbb2 eb3d
000003b0: 291f cb3d ba88 4c3e ff5e 5dbc cdd5 7fbe
000003c0: 6620 af3d 145d ed3c ae88 cabc 27b3 47bd
000003d0: b0a5 47be 28f8 bdbd fbf5 413e 30c7 483e
000003e0: 8857 45be 39b2 203d d0bf c13c a110 c9bd
000003f0: a11a 193d 8e27 5c3c 9338 a63d da4b 313e

decoder_layers.3.bias f4 [32]
0.10984872 -0.028350063 0.022177061 0.007852123 0.123817556 0.030788783 -0.059357964 0.084963344
0.119007014 0.23997518 0.022488918 0.07732725 -0.20591994 0.06054375 0.14603378 0.18610112
-0.103359394 0.19388367 0.11109038 -0.15625998 0.1555658 0.2459822 -0.2506089 -0.2009158
0.0015771348 0.24838059 0.06733687 0.09774997 -0.123831786 -0.20886767 0.1916783 0.1376577
00000000: 5ef8 e03d 643e e8bc abac b53c 31a6 003c
00000010: 0f94 fd3d c238 fc3c 5621 73bd 4301 ae3d
00000020: f3b9 f33d 0ebc 753e ae3a b83c c05d 9e3d
00000030: addc 52be b9fc 773d e189 153e 4b91 3e3e
00000040: 17ae d3bd 7189 463e 5a83 e33d 9e02 20be
00000050: a44c 1f3e c2e2 7b3e cf4f 80be dfbc 4dbe
00000060: ddb7 ce3a 7b57 7e3e eae7 893d 2331 c83d
00000070: 859b fdbd 68e1 55be 5147 443e 24f6 0c3e

layer_norms.0.weight f4 [16]
1.1236936 0.99349046 0.79051316 1.0203449 1.036045 1.0163786 0.97319347 1.0534782
0.97874445 0.9644038 1.0839782 0.96878535 0.92344725 0.9854391 0.9976128 0.9718113
00000000: 31d5 8f3f 6455 7e3f 125f 4a3f a99a 823f
00000010: 1f9d 843f b218 823f 3523 793f 60d8 863f
00000020: ff8e 7a3f 2be3 763f ccbf 8a3f 5102 783f
00000030: 0a67 6c3f bd45 7c3f 8d63 7f3f a0c8 783f

layer_norms.0.bias f4 [16]
0.12463334 0.005246374 -0.16612412 0.040828332 0.06418887 0.041712366 -0.038855705 0.06667931
-0.051345576 -0.01578092 0.05944959 -0.020656303 -0.05295274 -0.0075156954 -0.013416151 -0.0393202
00000000: c43f ff3d c6e9 ab3b 711c 2abe 9c3b 273d
00000010: 7475 833d 96da 2a3d 2927 1fbd 298f 883d
00000020: bd4f 52bd fd46 81bc 6a81 733d 6837 a9bc
00000030: f9e4 58bd 3946 f6bb 6acf 5bbc 380e 21bd

layer_norms.1.weight f4 [8]
1.1014715 0.87803966 0.8746592 1.1236756 0.92996824 0.8832324 0.82258135 0.8840534
00000000: 05fd 8c3f 35c7 603f aae9 5f3f 9ad4 8f3f
00000010: 6612 6e3f 851b 623f b194 523f 5351 623f

layer_norms.1.bias f4 [8]
0.16437453 -0.10577864 0.050427042 0.16351648 0.14589396 -0.15201233 -0.2773773 -0.19624971
00000000: cc51 283e 79a2 d8bd 968c 4e3d dd70 273e
00000010: 3a65 153e 1fa9 1bbe 6604 8ebe aff5 48be

layer_norms.2.weight f4 [4]
0.9879594 0.95446986 1.0388157 0.972717
00000000: e8ea 7c3f 2358 743f eaf7 843f fb03 793f

layer_norms.2.bias f4 [4]
-0.015200415 -0.028739324 0.044758026 0.00456395
00000000: 290b 79bc bb6e ebbc 3154 373d 308d 953b

layer_norms.3.weight f4 [2]
0.55217886 0.4994143
00000000: 985b 0d3f 3bb3 ff3e

layer_norms.3.bias f4 [2]
-0.44767496 -0.49939573
00000000: a735 e5be ccb0 ffbe

layer_norms.4.weight f4 [4]
0.93217903 1.010389 1.0202198 1.0
00000000: 49a3 6e3f 6d54 813f 9096 823f 0000 803f

layer_norms.4.bias f4 [4]
-0.06858595 0.014609885 0.023426702 0.0
00000000: ca76 8cbd 4d5e 6f3c 5be9 bf3c 0000 0000

layer_norms.5.weight f4 [8]
0.67948115 0.9653294 1.0090381 0.99488086 0.95480496 0.95189965 0.96360815 0.92339814
00000000: 7af2 2d3f d41f 773f 2928 813f 83b0 7e3f
00000010: 196e 743f b2af 733f 06af 763f d263 6c3f

layer_norms.5.bias f4 [8]
0.26914826 -0.031068975 0.014649704 -0.0008371945 -0.051816273 -0.054037876 -0.032147504 -0.06126337
00000000: cdcd 893e 5d84 febc 5005 703c 2c77 5bba
00000010: 4d3d 54bd d256 5dbd 1aad 03bd 4def 7abd

layer_norms.6.weight f4 [16]
0.8036119 0.96036243 0.85235834 0.9616572 0.99923265 0.95025766 0.9547106 0.7557332
0.867322 0.9434674 0.91726804 0.9679149 0.84812593 0.96047556 0.8758752 0.93078774
00000000: 82b9 4d3f 50da 753f 2834 5a3f 2b2f 763f
00000010: b6cd 7f3f 1644 733f ea67 743f bb77 413f
00000020: d108 5e3f 1487 713f 14d2 6a3f 45c9 773f
00000030: c81e 593f bae1 753f 5b39 603f 1b48 6e3f

layer_norms.6.bias f4 [16]
-0.17382477 -0.038198 -0.13826793 -0.038926363 0.005724522 -0.05924723 -0.037286256 -0.21821767
-0.109333776 -0.065081924 -0.07057623 -0.025408626 -0.10442399 -0.037833594 -0.08545003 -0.06434843
00000000: 1fff 31be 8275 1cbd 1c96 0dbe 4071 1fbd
00000010: c594 bb3b 39ad 72bd 79b9 18bd 7474 5fbe
00000020: 63ea dfbd ac49 85bd 458a 90bd c025 d0bc
00000030: 3fdc d5bd 66f7 1abd 6d00 afbd 1cc9 83bd

layer_norms.7.weight f4 [32]
1.0 1.0 1.0 1.0 1.0 1.0 1.0 1.0
1.0 1.0 1.0 1.0 1.0 1.0 1.0 1.0
1.0 1.0 1.0 1.0 1.0 1.0 1.0 1.0
1.0 1.0 1.0 1.0 1.0 1.0 1.0 1.0
00000000: 0000 803f 0000 803f 0000 803f 0000 803f
00000010: 0000 803f 0000 803f 0000 803f 0000 803f
00000020: 0000 803f 0000 803f 0000 803f 0000 803f
00000030: 0000 803f 0000 803f 0000 803f 0000 803f
00000040: 0000 803f 0000 803f 0000 803f 0000 803f
00000050: 0000 803f 0000 803f 0000 803f 0000 803f
00000060: 0000 803f 0000 803f 0000 803f 0000 803f
00000070: 0000 803f 0000 803f 0000 803f 0000 803f

layer_norms.7.bias f4 [32]
0.0 0.0 0.0 0.0 0.0 0.0 0.0 0.0
0.0 0.0 0.0 0.0 0.0 0.0 0.0 0.0
0.0 0.0 0.0 0.0 0.0 0.0 0.0 0.0
0.0 0.0 0.0 0.0 0.0 0.0 0.0 0.0
00000000: 0000 0000 0000 0000 0000 0000 0000 0000
00000010: 0000 0000 0000 0000 0000 0000 0000 0000
00000020: 0000 0000 0000 0000 0000 0000 0000 0000
00000030: 0000 0000 0000 0000 0000 0000 0000 0000
00000040: 0000 0000 0000 0000 0000 0000 0000 0000
00000050: 0000 0000 0000 0000 0000 0000 0000 0000
00000060: 0000 0000 0000 0000 0000 0000 0000 0000
00000070: 0000 0000 0000 0000 0000 0000 0000 0000

proj_out.weight f4 [1, 32]
0.0377491 0.04655251 0.048635572 -0.060875796 0.1701942 0.056881603 -0.060364798 -0.10869084
-0.088634335 0.09086993 -0.00754191 0.00021701836 -0.010971887 0.14186642 0.031523548 0.07250514
0.006554203 0.1438486 0.100745976 -0.028347997 0.12929736 0.04278327 -0.15790565 -0.10629637
-0.0021646973 0.16580975 -0.042407606 -0.12594922 -0.002142163 0.032156955 0.0016539221 -0.10613482
00000000: cd9e 1a3d d8ad 3e3d 1836 473d e658 79bd
00000010: 6347 2e3e affc 683d 1441 77bd 4e99 debd
00000020: eb85 b5bd 041a ba3d 2022 f7bb 6c8f 6339
00000030: 6ec3 33bc 6e45 113e d61e 013d 937d 943d
00000040: a4c4 d63b 0c4d 133e e853 ce3d 0f3a e8bc
00000050: 8766 043e 833d 2f3d 05b2 21be e9b1 d9bd
00000060: 98dd 0dbb 08ca 293e 99b3 2dbd d5f8 00be
00000070: 8863 0cbb 03b7 033d 6bc8 d83a 365d d9bd

bottleneck.embedding.weight f4 [4, 4]
0.000120848395 0.0058462573 -3.875634e-39 0.05201926 0.055066295 2.1075734e-07 0.2466914 -1.87689e-40
0.19965772 1.8426385e-14 1.4134365e-06 2.821445e-07 9.789413e-08 2.8128238e-07 7.898825e-07 2.629915e-07
00000000: fd6f fd38 f691 bf3b b133 2a80 2612 553d
00000010: 328d 613d 894c 6234 ac9c 7c3e 330b 0280
00000020: 1373 4c3e 5af8 a528 4fb5 bd35 a579 9734
00000030: de39 d233 2803 9734 5008 5435 4731 8d34
