trained_models/major-oath-119.pth (torch, 9617 bytes, 13 tensors)

positional_encoder.freq_bands_view f4 [1, 1, 50]
000000 00 00 80 3f 00 00 00 40 00 00 80 40 00 00 00 41
       1.0 2.0 4.0 8.0
000010 00 00 80 41 00 00 00 42 00 00 80 42 00 00 00 43
       16.0 32.0 64.0 128.0
000020 00 00 80 43 00 00 00 44 00 00 80 44 00 00 00 45
       256.0 512.0 1024.0 2048.0
000030 00 00 80 45 00 00 00 46 00 00 80 46 00 00 00 47
       4096.0 8192.0 16384.0 32768.0
000040 00 00 80 47 00 00 00 48 00 00 80 48 00 00 00 49
       65536.0 131072.0 262144.0 524288.0
000050 00 00 80 49 00 00 00 4a 00 00 80 4a 00 00 00 4b
       1.048576e+06 2.097152e+06 4.194304e+06 8.388608e+06
000060 00 00 80 4b 00 00 00 4c 00 00 80 4c 00 00 00 4d
       1.6777216e+07 3.3554432e+07 6.7108864e+07 1.3421773e+08
000070 00 00 80 4d 00 00 00 4e 00 00 80 4e 00 00 00 4f
       2.6843546e+08 5.368709e+08 1.0737418e+09 2.1474836e+09
000080 00 00 80 4f 00 00 00 50 00 00 80 50 00 00 00 51
       4.2949673e+09 8.589935e+09 1.717987e+10 3.435974e+10
000090 00 00 80 51 00 00 00 52 00 00 80 52 00 00 00 53
       6.871948e+10 1.3743895e+11 2.748779e+11 5.497558e+11
0000a0 00 00 80 53 00 00 00 54 00 00 80 54 00 00 00 55
       1.0995116e+12 2.1990233e+12 4.3980465e+12 8.796093e+12
0000b0 00 00 80 55 00 00 00 56 00 00 80 56 00 00 00 57
       1.7592186e+13 3.5184372e+13 7.0368744e+13 1.4073749e+14
0000c0 00 00 80 57 00 00 00 58
       2.8147498e+14 5.6294995e+14

proj_input.weight f4 [8, 101]
000000 70 15 ad bd 5e 4e 12 be 5e 6e d8 bc 26 f6 ab bd
       -0.084513545 -0.14287707 -0.026419815 -0.083965585
000010 d0 3b 2f 3d 9a 4d ce bc 31 db a2 bd 20 a2 af 3d
       0.04278165 -0.025183488 -0.07951964 0.08575845
000020 a5 15 03 b9 18 1f bc bd b3 55 1a bd b7 73 d3 bd
       -0.00012501197 -0.09185618 -0.037679385 -0.10324805
000030 02 64 95 3d 74 f1 5b bd 53 45 e6 3d f1 0c ad 3d
       0.072944656 -0.053697065 0.11243691 0.08449734
000040 02 bd 7b 3d 3f 38 db 3d de 47 62 bc c1 4d b9 bd
       0.06145955 0.107040875 -0.01381108 -0.090480335
000050 88 b2 40 bd 01 82 89 bc 79 93 cc bd 71 38 32 3d
       -0.04704526 -0.016785624 -0.09989066 0.043510858
000060 35 9e 77 bd e3 cd 10 3c fe 08 9c 3d 64 ea b7 3d
       -0.060453612 0.00883815 0.076189026 0.08980253
000070 1b 93 c4 bd 40 9f 43 3d ba f9 60 bd bf 8a bb bc
       -0.09598371 0.047759295 -0.054925658 -0.022893308
000080 c7 69 5e 3d 8c ee 5a 3d e0 55 91 3d 28 93 4b 3d
       0.054300096 0.053450152 0.070964575 0.049700886
000090 48 7d 8d 3d f9 f9 b5 3d db 6a e6 bd 0a 98 c2 3d
       0.06908661 0.08885569 -0.1125085 0.095016554
0000a0 0d 87 5f 3d 4c cb 4b bd a4 a9 8a bc 46 35 a0 bd
       0.054572154 -0.049754426 -0.016926594 -0.07822661
0000b0 5c e0 de 3d ea 3e 39 3c 4c 1f cf 3d d0 68 a5 3d
       0.10882637 0.011306504 0.10113391 0.08076632
0000c0 33 7b 17 bd 3a d0 27 3c 58 fd 11 3d 1b 8b ef bc
       -0.036982726 0.010242516 0.035641998 -0.029241135
0000d0 76 51 39 3d 82 72 8d 3d 0d 82 96 bd 22 eb 39 3d
       0.045243703 0.06906606 -0.07349024 0.045390256
0000e0 81 7f c9 3d e0 c7 e7 ba e8 32 a4 3d b9 e7 9e 3c
       0.098387726 -0.0017683469 0.08017522 0.019397603
0000f0 3b 57 94 3d 65 0e e8 bc 01 f5 b7 bd 59 fe 75 3c
       0.072432004 -0.028327176 -0.08982278 0.0150142545
000100 20 da eb bc 59 bd cd bd cd d1 2a 3d 32 3f 08 bb
       -0.028790534 -0.10045881 0.041703988 -0.002078962
000110 3f fc 83 3d e5 33 03 3d a8 14 d0 bd ec ff 5d bd
       0.064445965 0.032031912 -0.1016019 -0.054199144
000120 d3 9e 48 bd fc 8b a9 bc 51 94 a1 3b 57 0a 1a 3d
       -0.04897959 -0.020696633 0.004931011 0.037607517
000130 13 11 98 bd bd de 30 3d 60 b7 52 bd 51 b2 e3 bd
       -0.07425132 0.04318117 -0.05144441 -0.111179955
000140 49 9f 36 3c 32 f3 64 3b 5e e0 34 3d f1 e2 93 3c
       0.011146375 0.0034934995 0.044159286 0.01805255
000150 57 60 8a 3d e0 61 98 3d 6b ea c1 bd 4a c5 a2 3c
       0.067566566 0.07440543 -0.0946854 0.019869465
000160 61 35 c2 bd 68 f6 13 bb da ef 85 3d 9f e9 48 3d
       -0.094828375 -0.002257729 0.06539889 0.049050923
000170 7d 2b 1a bd 10 eb a4 3d 47 5f a8 bc 63 90 e3 3d
       -0.03763913 0.08052647 -0.020553244 0.11111524
000180 75 f6 e2 3c 13 12 21 3c 62 76 06 3d 32 81 e0 bc
       0.02770541 0.009830969 0.032827742 -0.027405355
000190 32 3e 2b 3d 21 c9 5f 3e e1 0c 5b 3e 8b eb ed 3d
       0.04180736 0.21854068 0.21391632 0.11617192
0001a0 4b b8 aa 3d 8d f1 c4 bd 83 6d c1 3d 5d 1d ec bd
       0.08335932 -0.09616385 0.09444716 -0.11529038
0001b0 5a 24 ad 3d e5 f9 c2 3c af a1 8e bd 5c 35 2b 3d
       0.08454199 0.0238008 -0.069644324 0.041798934
0001c0 d5 83 22 3d 11 2e 8d 3c e6 5f 90 bd 4e 1a 20 bb
       0.039676506 0.01723388 -0.07049541 -0.0024429741
0001d0 2d 77 a0 3d 31 21 a9 3d 83 a0 ce bd 23 bb ba bd
       0.07835231 0.08258284 -0.10089209 -0.09117725
0001e0 55 51 b2 3d bb 3f 4b bd bb c5 e5 3b 50 a0 08 bd
       0.08706919 -0.049621325 0.0070120967 -0.03335601
0001f0 17 9a 0d 3c c1 37 58 bc 38 f8 d2 bd ce e8 53 3d
       0.008642695 -0.0131968865 -0.1030125 0.05173569
000200 11 14 c4 bd d4 67 1a bd 11 43 ba bd 32 78 73 bd
       -0.0957414 -0.037696674 -0.09094823 -0.0594408
000210 56 1a 61 bd f3 af 8a bd 3f 19 30 bc 8d 61 a9 bd
       -0.054956757 -0.06771841 -0.010748207 -0.082705595
000220 e7 c3 8a 3d e2 44 9a bd 04 56 aa 3d 5d 14 9c 3d
       0.06775647 -0.075326696 0.083171874 0.076210715
000230 2a 82 c9 bd b2 68 d9 bd 3d d2 93 bd d6 d3 a7 3d
       -0.0983928 -0.10615672 -0.07217834 0.081947014
000240 e1 78 89 bd c4 98 1f bd e5 e8 d7 3a 55 81 a2 bd
       -0.06712509 -0.038964048 0.0016472606 -0.079348244
000250 78 4a 7c 3d 6b 33 70 bd 7c e5 77 3d 9e 1e 49 bd
       0.061594456 -0.058642786 0.060521588 -0.049101464
000260 06 56 1d 3d f6 e5 59 bd 89 53 a2 be 07 46 fe 3d
       0.038412116 -0.053197823 -0.31704357 0.124157004
000270 db 5d 69 bd 6d a8 60 bd 29 50 71 3d f0 80 1c bd
       -0.056974273 -0.054848123 0.058914337 -0.038208902
000280 53 9d 3d 3d d9 22 2f bd 94 89 68 3d 2d dc a5 3d
       0.046292614 -0.042757843 0.05677183 0.08098636
000290 9d 32 97 3d 63 61 7c 3d ac 48 a7 3d 66 0f 8d 3d
       0.073827006 0.061616313 0.08168158 0.06887703
0002a0 f6 b2 1e bb e1 11 ae bd e0 13 b0 bd dd 26 72 bd
       -0.0024215556 -0.08499504 -0.08597541 -0.059119094
0002b0 c2 12 68 3d f4 26 ab 3d 59 77 3c bd 87 48 3b bd
       0.056658514 0.08357039 -0.046012256 -0.045723464
0002c0 d4 a8 45 bd 53 29 49 3d 7b ee 81 bc 9d f1 8a 3b
       -0.04825671 0.049111675 -0.015860787 0.0042402283
0002d0 ec 77 ed 3d b0 5b 9a 3d 73 8e 5f 3d 4a 44 bc bb
       0.11595139 0.07537019 0.05457921 -0.0057454454
0002e0 8d ea 84 3d 3c 89 8c 3d b3 1b b6 3d 42 95 34 3d
       0.064900495 0.06862113 0.08892002 0.044087656
0002f0 be d3 20 3d 57 1c 46 bd 7d da 54 bd 95 0c 95 3d
       0.039264433 -0.04836687 -0.05196618 0.072777905
000300 19 0a 2f bb f0 7e eb bc 97 2b 92 3c 33 c7 57 bd
       -0.00267089 -0.028747052 0.01784305 -0.052680206
000310 a4 bd c4 bd 2c ed 92 bc 30 59 8d 3d 67 c4 a9 3d
       -0.096064836 -0.017935358 0.06901777 0.08289414
000320 e8 cf 61 ba 75 38 a7 3d 8c 70 36 be 8e 96 b4 bd
       -0.00086140493 0.08165065 -0.1781637 -0.088177785
000330 e5 d2 36 be 0d 15 db 3c 9b c6 31 3b 3c 57 0f bd
       -0.17853887 0.026743436 0.0027126435 -0.034995303
000340 ca 61 10 bd 53 11 e0 3d c9 d6 99 3d 9a 7b 46 bd
       -0.03524951 0.10940804 0.0751167 -0.04845772
000350 be cd aa bc d8 d5 99 3c 3c 4f 91 bd 80 0d 29 3d
       -0.020850059 0.018778726 -0.07095191 0.04127264
000360 81 dd 81 3d 6f e2 ed bc 4f e8 d5 3d 16 d5 65 3d
       0.06341077 -0.029038636 0.104447 0.056111418
000370 8c 63 e5 3d ed f4 5a bd c9 16 c9 bc 28 fc d4 bd
       0.11200628 -0.053456236 -0.024546998 -0.103996575
000380 f9 4f 02 3d 08 bf a1 3c ae 15 a2 bd d7 48 19 3d
       0.03181455 0.019744411 -0.07914291 0.03742298
000390 0d 4d 4b bd 7a 87 d9 3d d4 57 b1 bd 82 9b 09 3d
       -0.04963403 0.10621543 -0.0865933 0.03359557
0003a0 c5 5d 2e bd ef 79 2d 3d 4f 5d d5 3d 31 85 db bc
       -0.042569894 0.042352613 0.10418188 -0.026796909
0003b0 cb af 72 bd a7 93 99 bd 92 15 95 bd 16 c7 d1 3d
       -0.05924968 -0.074988656 -0.07279505 0.10243051
0003c0 f1 7d 56 3d 86 1e b5 3c f6 9a 37 3d df 46 aa bc
       0.0523662 0.022109281 0.044825517 -0.020785747
0003d0 73 26 16 3d b2 8b a5 3d 29 a5 d2 3d 46 18 b0 3d
       0.03665776 0.080832854 0.10285408 0.0859838
0003e0 73 d3 90 3d 3a b4 64 3d 45 11 ef bd 97 5d 59 3c
       0.07071581 0.05583594 -0.11673216 0.013266942
0003f0 9a 26 0a 3d 08 45 76 bc 54 54 ab 3d 5f 51 c1 3d
       0.03372822 -0.015031107 0.08365694 0.094393484

proj_input.bias f4 [8]
000000 7c c3 c1 3c 3b 95 35 3e 35 7c ad bd 95 18 8e 3d
       0.023652785 0.17732708 -0.08470956 0.069382824
000010 ab 5a c8 bc 53 ee cd 3d b5 d9 9a 3b 0b dd 96 bd
       -0.024457296 0.10055222 0.0047256597 -0.07366379

encoder_layers.0.weight f4 [4, 8]
000000 45 01 68 3d aa 1f 0a be 2e c0 1e 3e ac 39 d9 3d
       0.056641836 -0.13488641 0.15502998 0.10606703
000010 08 44 f3 bd ce 2e 92 be bb 0a 58 3e 90 a1 01 3d
       -0.1187821 -0.28551334 0.21097843 0.03164822
000020 e3 ea 70 3e 42 a2 32 3e bd 32 ac be dc 8d 90 3e
       0.23527102 0.17444709 -0.3363246 0.2823323
000030 ff 11 3e 3e f6 5e 1f 3d 15 b8 9b 3e d4 aa 2f bb
       0.18561552 0.03890892 0.3041388 -0.0026804702
000040 0f 6e 2a 3e c8 46 b5 be da fe 89 3e 09 95 11 3d
       0.16643547 -0.35405564 0.2695225 0.03554252
000050 b8 9a 03 3e 15 bf 2e bd ee cd 26 be d2 ee 9a bd
       0.1285199 -0.0426627 -0.16289493 -0.075650826
000060 6f 55 b8 3e 38 76 7e 3e ad 4b 00 be ef 93 a9 be
       0.3600268 0.24849784 -0.12528868 -0.33120677
000070 99 4f 32 be 27 7c 57 be 3f 1f b3 be d2 9f cf 3e
       -0.17413177 -0.21043454 -0.34984776 0.4055162

encoder_layers.0.bias f4 [4]
000000 93 43 87 be cb 6b 79 3e 47 72 3a be c4 bb 94 be
       -0.26418743 0.24357526 -0.18207656 -0.29049504

encoder_layers.1.weight f4 [2, 4]
000000 14 f2 7b bd 61 db 1d 3e d9 b2 07 3d 25 bf 5c 3d
       -0.06151016 0.15415718 0.033129547 0.053893227
000010 79 d3 e9 3d 2f d0 13 bf c9 6e 80 bd 56 f8 8d be
       0.11417288 -0.5773954 -0.062711306 -0.27728528

encoder_layers.1.bias f4 [2]
000000 54 2a 41 be 0f 42 b1 3e
       -0.18863803 0.3462071

decoder_layers.0.weight f4 [4, 2]
000000 23 f6 53 3d b1 c6 b2 3d ba f3 82 3d 34 f4 bc be
       0.051748406 0.08729304 0.063941434 -0.36905062
000010 84 e5 57 3e 87 3e 1c bf 39 53 d8 3e f3 18 06 be
       0.21083647 -0.6103291 0.42250994 -0.13095455

decoder_layers.0.bias f4 [4]
000000 87 d4 09 bf 68 26 89 3d 00 b5 46 be 60 b7 bb be
       -0.53839916 0.066967785 -0.19404984 -0.36663342

decoder_layers.1.weight f4 [8, 4]
000000 31 aa b3 3e c8 94 df be 5f fe de be a7 11 34 be
       0.35090783 -0.436682 -0.43553445 -0.17584859
000010 d5 9b 95 bd b2 30 e1 be 1c be ed 3e f3 83 ac 3e
       -0.07305113 -0.43982464 0.46434104 0.3369442
000020 80 56 53 be 9b 86 c1 be 7c 11 d1 be fb 04 46 be
       -0.20638466 -0.37798008 -0.40833652 -0.19337837
000030 15 2d 61 3e 83 c2 d6 be c5 a8 71 be 74 b0 0d bd
       0.21989854 -0.41945276 -0.23599537 -0.034592107
000040 51 36 a6 3e a4 6a 4b 3e 2c fe ca be 4d 2f d9 3e
       0.32463315 0.19864899 -0.39647043 0.424189
000050 f6 26 81 3e 7d aa 88 be 9b eb 90 be 95 cb b9 3e
       0.25225037 -0.26692572 -0.28304753 0.36288133
000060 11 28 05 3e 40 92 38 bd 7e 58 fa be 45 3e c4 3e
       0.13003565 -0.04506135 -0.4889564 0.38328758
000070 f6 a5 c2 3e df 50 53 be 66 e6 b7 3e a9 82 70 be
       0.38017243 -0.20636319 0.35917968 -0.23487343

decoder_layers.1.bias f4 [8]
000000 05 71 0d bf 48 0b e7 3e 2b aa 14 3d f9 15 b9 3e
       -0.5525058 0.45125794 0.036295097 0.36149576
000010 54 28 fe bc 98 68 dc be 62 2e 63 3e c4 9f d0 3e
       -0.03102509 -0.4304855 0.22185662 0.40746891

proj_out.weight f4 [1, 8]
000000 5a 51 ad bd 3f 67 a0 be e1 cb 8e 3e d0 bd ab be
       -0.08462782 -0.3132877 0.27889922 -0.33543253
000010 fc 73 b7 be ee 9e fd bd 42 70 49 3e 21 88 82 3c
       -0.35830677 -0.12383829 0.19671729 0.015934052

bottleneck.embedding.weight f4 [2, 2]
000000 d0 39 61 bd da b7 d5 be 34 4d 02 3c 60 fd f4 3c
       -0.054986775 -0.4174183 0.007952977 0.029905975
