trained_models/neural_audio_encoding.pth (torch, 27497 bytes, 21 tensors)

positional_encoder.freq_bands_view f4 [1, 1, 50]
000000 00 00 80 3f 00 00 00 40 00 00 80 40 00 00 00 41
       1.0 2.0 4.0 8.0
000010 00 00 80 41 00 00 00 42 00 00 80 42 00 00 00 43
       16.0 32.0 64.0 128.0
000020 00 00 80 43 00 00 00 44 00 00 80 44 00 00 00 45
       256.0 512.0 1024.0 2048.0
000030 00 00 80 45 00 00 00 46 00 00 80 46 00 00 00 47
       4096.0 8192.0 16384.0 32768.0
000040 00 00 80 47 00 00 00 48 00 00 80 48 00 00 00 49
       65536.0 131072.0 262144.0 524288.0
000050 00 00 80 49 00 00 00 4a 00 00 80 4a 00 00 00 4b
       1.048576e+06 2.097152e+06 4.194304e+06 8.388608e+06
000060 00 00 80 4b 00 00 00 4c 00 00 80 4c 00 00 00 4d
       1.6777216e+07 3.3554432e+07 6.7108864e+07 1.3421773e+08
000070 00 00 80 4d 00 00 00 4e 00 00 80 4e 00 00 00 4f
       2.6843546e+08 5.368709e+08 1.0737418e+09 2.1474836e+09
000080 00 00 80 4f 00 00 00 50 00 00 80 50 00 00 00 51
       4.2949673e+09 8.589935e+09 1.717987e+10 3.435974e+10
000090 00 00 80 51 00 00 00 52 00 00 80 52 00 00 00 53
       6.871948e+10 1.3743895e+11 2.748779e+11 5.497558e+11
0000a0 00 00 80 53 00 00 00 54 00 00 80 54 00 00 00 55
       1.0995116e+12 2.1990233e+12 4.3980465e+12 8.796093e+12
0000b0 00 00 80 55 00 00 00 56 00 00 80 56 00 00 00 57
       1.7592186e+13 3.5184372e+13 7.0368744e+13 1.4073749e+14
0000c0 00 00 80 57 00 00 00 58
       2.8147498e+14 5.6294995e+14

proj_input.weight f4 [32, 101]
000000 74 09 ff 3b 9f 09 0c bd b0 03 bd bd fc 36 b9 3d
       0.0077831093 -0.034188863 -0.09229219 0.090436906
000010 81 f8 b9 3d 84 6b f1 3c 69 1e 9f 3d 61 6f 96 bd
       0.090806015 0.029470213 0.07769472 -0.073454626
000020 84 50 c7 bc 7a 02 2c 3d 4c 3e 89 3c 32 b7 e4 bc
       -0.024330385 0.04199455 0.016753338 -0.027919386
000030 e8 96 67 bd 8a 1b 10 bd 36 f0 e2 bc d0 92 33 bc
       -0.0565404 -0.035182513 -0.027702432 -0.010960296
000040 40 2a a9 bc e8 ab b4 3d a0 d8 5c bd a7 c4 ae 3d
       -0.02065003 0.08821851 -0.053917527 0.08533602
000050 7a 10 0a 3d 91 2d a1 bc b3 0e 13 3d 2b af 48 3c
       0.03370712 -0.019675048 0.03590269 0.012248795
000060 e5 6e 08 3c 2d 87 d7 bd 04 9e 1a bd e1 ce aa 3c
       0.008327221 -0.105238296 -0.03774835 0.0208506
000070 9a 57 1e 3d 6d af 71 3d 91 45 87 bd f5 86 9f bd
       0.038657762 0.05900519 -0.066050656 -0.07789413
000080 1b 20 ab bd f5 2a 46 bd 27 35 db 3d be 20 a4 3d
       -0.08355733 -0.04838081 0.107034974 0.080140576
000090 cd 0c 1e 3c 85 73 5f bc 5a d6 c0 3d 44 c3 9d 3c
       0.009646607 -0.013638382 0.09415884 0.019258149
0000a0 c8 b9 4a bc b4 ea 18 3d 6b 90 bf bd d9 a7 53 bb
       -0.012373395 0.037333205 -0.093537174 -0.003229609
0000b0 e8 eb b6 3d 54 de 91 bd f7 77 8a bd 5b ea 20 3d
       0.08931714 -0.07122484 -0.06761163 0.039286
0000c0 71 30 d9 bc 94 59 71 3d 66 34 dc bd 80 68 88 3d
       -0.026512356 0.05892332 -0.10752182 0.06660557
0000d0 30 a8 b0 3b 0f fe 2a 3e fe 1f 41 bd 7d b7 cf 3d
       0.0053911433 0.16698478 -0.04714965 0.101424195
0000e0 fd 28 6e bc fd ea 73 bd 3a f6 20 3d 40 bb cf 3d
       -0.01453614 -0.059550274 0.03929732 0.10143137
0000f0 de 80 4d ba af f0 28 3d bb 01 ea bc 93 06 bd bc
       -0.0007839332 0.04124516 -0.028565278 -0.023074424
000100 e7 19 2e bc dd e7 d0 bc 8b c3 7c 3b c7 04 5a bd
       -0.010626293 -0.025501186 0.00385687 -0.053227212
000110 d2 4b dd 3d 9d ee 50 bd 84 11 24 3d 8c f1 e7 3d
       0.10805477 -0.05100881 0.040055767 0.11325368
000120 b0 93 b0 bc 65 93 39 bd 1d a0 50 3c 8c 9b b8 3d
       -0.021554798 -0.045306582 0.0127334865 0.09014043
000130 b6 2b 7a ba 85 ac 6b bb 8a be 94 3d 54 0b e4 3d
       -0.00095432566 -0.0035960984 0.07262905 0.11134973
000140 8d d9 b7 bd 5b ca 43 3d 2c 9b fd 3d fe 45 1a 3d
       -0.089770414 0.047800403 0.12383112 0.037664406
000150 9e 85 ed 3c 6f 86 d0 3c 0d 3a 38 bc 11 5f 27 3b
       0.028994378 0.025454728 -0.011244309 0.0025538842
000160 2c 9c 2b bd 89 9a ef 3d 1b b1 8c bd 55 15 77 bd
       -0.041896984 0.11699397 -0.06869718 -0.06032308
000170 02 ee bc bc 38 de 80 bd 7f a7 06 bc 28 bf 56 bc
       -0.02306271 -0.06292385 -0.008218645 -0.013107099
000180 5a 89 5d bc ca fa 31 bc 6c c3 12 3d 85 f8 5f 3d
       -0.013521517 -0.010863015 0.0358309 0.054680366
000190 af 71 26 bd d2 e5 09 3e 1a 4b 06 3e c9 3e 4e bd
       -0.04063576 0.13466576 0.13114586 -0.050352845
0001a0 b6 62 9e bb 02 44 11 3d bf 29 b5 bc dc 61 96 3d
       -0.0048335446 0.035465248 -0.022114633 0.07342884
0001b0 6a 07 ab 3d 27 56 db bc 57 37 19 3c b9 11 38 3d
       0.083510235 -0.02677448 0.009351573 0.044938777
0001c0 55 30 93 bd 78 8b 3f 3d 10 fc d3 bc 9a 12 af 3d
       -0.07186953 0.046763867 -0.025877029 0.0854847
0001d0 88 05 5b 3c 0a fb 81 bd c5 bf 7c 3c 5d e4 cd 3d
       0.013368018 -0.0634671 0.015426581 0.100533225
0001e0 51 2e c6 bd ed 65 ca 3d ff 52 bf 3d ea 67 8a bd
       -0.09676803 0.09882722 0.09342002 -0.06758101
0001f0 47 a3 1d 3d 99 a6 b2 bc 37 dc df bc 32 90 07 bd
       0.03848579 -0.021807956 -0.027326686 -0.0330965
000200 1a 4f b7 3d ab 77 88 bd 9c 99 7d 3d 5c 0d 8b 3d
       0.08950634 -0.0666345 0.06191407 0.067896575
000210 27 f1 f5 bc e8 a4 d3 b9 83 93 85 3d c1 ed 98 3d
       -0.030022217 -0.0004036792 0.06522276 0.07467223
000220 2f 1d b8 3c d6 e2 e0 3c 0a b8 c1 3d df 1f 96 3d
       0.022474853 0.027451914 0.09458931 0.07330298
000230 2f 67 f0 bc 59 22 64 3d cd e3 25 3c 92 d5 a5 bd
       -0.029346077 0.05569682 0.010125113 -0.08097376
000240 7e b8 d4 3c d8 59 c9 3d 58 5a f3 3c 3d cf b2 bc
       0.025966879 0.098315895 0.029706165 -0.021827335
000250 f2 f4 3a 3b 7d d6 39 bc ea ff a9 3d 71 ab 96 bd
       0.0028527346 -0.011342642 0.08300765 -0.073569186
000260 15 37 21 bb 19 26 c6 bd 5b 8c 19 3d 4c 65 1f bd
       -0.0024599482 -0.09675235 0.03748737 -0.038914964
000270 48 a8 c3 3c 15 a6 bb 3d 5c 92 49 3c 07 64 60 bd
       0.023883954 0.09162537 0.012302961 -0.054782894
000280 b0 3c af bc 36 55 bf bd e1 7c d1 bd 91 f0 ce bd
       -0.021391243 -0.093424246 -0.10228897 -0.10104478
000290 c5 56 b7 3c ec 87 ae 3d 28 77 6c bd 9b d0 27 bd
       0.022380242 0.08522019 -0.057730824 -0.040970426
0002a0 e8 17 9a bd f6 a7 31 3d 91 fe 56 3d bd 3b b0 3c
       -0.07524091 0.04337307 0.052488867 0.02151286
0002b0 49 d2 08 bd 6b eb 7f 3d df 74 d9 bd 34 d2 3c bc
       -0.03340367 0.06248037 -0.106179945 -0.011524726
0002c0 67 ce 99 3d 5a 2f 47 3d 5a 98 4d 3d 7b 74 8b 3d
       0.07510071 0.048629142 0.050194122 0.06809326
0002d0 02 23 7f bd df 05 a1 3d 57 6b c9 3c 34 57 54 bd
       -0.062289245 0.07862448 0.024587316 -0.051840976
0002e0 85 dc e4 ba 75 f5 b5 bc 1b 51 9d bd 9b f2 d6 3d
       -0.001746074 -0.02221177 -0.07681485 0.10495492
0002f0 13 2c e3 3c 6c 8b ac bd 87 94 ce 3d 1f 22 91 3d
       0.027730977 -0.0842503 0.10086923 0.07086586
000300 3d b8 91 3d 4d ca 52 3d 28 14 92 bb a3 1e cb bd
       0.07115219 0.05146246 -0.004457969 -0.09917953
000310 65 94 54 bd 82 1c c4 bd 45 a1 e9 bc 29 4a 45 3d
       -0.051899333 -0.0957575 -0.028519282 0.048166428
000320 e8 46 c3 bc f3 10 b4 bd 6e 09 01 3d 87 23 95 bc
       -0.023837522 -0.08792295 0.031503133 -0.018205417
000330 72 45 d9 bd 2b 50 91 3c 4a 66 9d 3d bb ce 1e bd
       -0.10608949 0.017738422 0.07685526 -0.038771372
000340 6a 6e b5 3d 3c ea 33 bc 5f e7 9f 3d f1 f0 a7 3d
       0.088589504 -0.010981139 0.078078024 0.08200253
000350 0b 77 d4 bc f3 d1 48 3d 9e ef 33 3c c2 df d3 bd
       -0.02593567 0.04902835 0.010982422 -0.10345413
000360 b2 f3 24 3a 2d 1f b3 bd 39 54 25 bd 7d 06 d1 3d
       0.0006292417 -0.08746181 -0.040363524 0.10206316
000370 f1 30 47 bd cf 18 52 bd 34 2e 9b bd 64 d4 5d bc
       -0.04863066 -0.05129319 -0.07577172 -0.013539407
000380 21 c2 8c 3d 91 99 3c 3d 30 c4 d9 bc 1d 42 8a bd
       0.06872965 0.04604489 -0.026582807 -0.06750891
000390 86 94 51 3d d1 0e 9d bd 59 ca 2b 3d ee 03 ae bd
       0.051167034 -0.07668842 0.04194102 -0.08496843
0003a0 95 98 8f 3d 9e c2 2a b9 fe ea 4b bd 67 97 df bc
       0.070115246 -0.00016284964 -0.049784653 -0.027293874
0003b0 e7 64 8f bd 19 85 85 bd ba 09 de bc 1e 90 2e 3d
       -0.070016675 -0.06519527 -0.027104247 0.04261791
0003c0 61 56 09 3d f3 ac c1 3d ab ac 34 bd 69 2f b2 3b
       0.033529643 0.094568156 -0.04410998 0.0054377806
0003d0 ec 62 9d bd 04 ba 1f 3d f4 55 bd bd 16 6c 84 39
       -0.076848835 0.038995758 -0.0924491 0.00025257532
0003e0 46 ab c9 3c ad 81 e5 3c 49 6a 72 bd 93 c0 8d bb
       0.024617802 0.028015936 -0.059183393 -0.004325935
0003f0 05 e1 61 3c 5c f2 a4 3d 9d bb a4 bd d5 bf 46 3d
       0.013786559 0.08054039 -0.08043597 0.04852279

proj_input.bias f4 [32]
000000 8f cf 44 bd c9 ee 0f bd 84 bd 5e bd 7f 5f 03 3d
       -0.048049506 -0.035139833 -0.054379955 0.032073494
000010 c3 1f 5c 3d c6 78 84 3c 62 bd 68 bd 56 f8 85 3d
       0.053741228 0.01617087 -0.056821235 0.06541507
000020 02 2c ba 3b 44 c2 2c 3c 8a fd 38 3b 45 48 44 bb
       0.0056815157 0.010544363 0.0028227293 -0.0029950303
000030 db 1b f2 3d 14 9b d7 3d 07 fd 56 bc bb ab dc 3d
       0.11821719 0.10527626 -0.01312185 0.107749425
000040 6a 50 ae bd ac df 9b 3d 33 04 51 3b 23 99 84 3d
       -0.085114315 0.076110214 0.0031893372 0.06474521
000050 4e e8 ed 3d 98 5c a3 3d 8b 36 e1 bb 2d b6 09 3d
       0.11616574 0.07976645 -0.006872957 0.033621002
000060 12 84 93 3d fa 80 13 3d b5 7d 53 3d ff 84 7f 3d
       0.07202925 0.036011674 0.051633555 0.062382694
000070 37 fd 7f bd dc 7a 16 3b 7e b7 2a bd d5 7c 01 bd
       -0.062497344 0.0022961413 -0.041678898 -0.03161319

encoder_layers.0.weight f4 [16, 32]
000000 7a e0 16 3e d0 8a be 3d fc 92 3e bd 9c dd 20 3e
       0.14734069 0.0930382 -0.046526894 0.15709537
000010 29 05 07 be 05 01 d8 bd 6c c4 04 3e 5d 8c cc 3b
       -0.13185562 -0.105470695 0.12965554 0.0062423185
000020 39 20 a8 bd a5 9b bf 3c a8 6d 97 bd 1a a5 c5 bd
       -0.08209271 0.023389647 -0.07393962 -0.09650631
000030 40 ff 2e 3d 3e ab 54 bd d1 60 db 3c e0 51 c0 bc
       0.042723894 -0.05192112 0.026779564 -0.023476541
000040 5c 86 2d be 85 b5 a2 bc 0b eb cc 3c 23 83 1a 3e
       -0.16945785 -0.019861946 0.025014421 0.15089087
000050 82 3e 54 3d 51 b4 a5 bd 67 c6 39 3e 1e 72 2d bd
       0.051817425 -0.08091033 0.1814209 -0.04234516
000060 1d 17 ff bd b5 61 33 3e d6 28 29 3e c0 58 03 3e
       -0.124555804 0.17517741 0.16519484 0.12826824
000070 78 0f 49 3d 1e 64 11 be 24 da de 3c a0 6e 06 3e
       0.049087018 -0.14198348 0.027203627 0.13128138
000080 9c 0c cc bd 6e 1c 79 3d cd 9a d2 3c fb 7b 3b 3d
       -0.099633425 0.06081813 0.02570858 0.045772534
000090 30 b3 3f 3d e3 b9 02 bd eb ab 2f 3e 6d 5a 92 3d
       0.046801746 -0.031915557 0.17155425 0.071461536
0000a0 13 4b d2 bd fd 02 36 3e 0d cb 0b be 47 ab 89 bd
       -0.102682255 0.17774577 -0.13651676 -0.06722122
0000b0 da 4a 04 3e 86 05 fa 3d 21 41 0e 3d 10 24 27 3e
       0.12919179 0.12208085 0.03473008 0.1632235
0000c0 41 df a4 bd 5a 0b de bc 61 f0 0e be ae 77 0f bd
       -0.08050395 -0.027105022 -0.13958885 -0.035026245
0000d0 47 fb d5 bc ff fa 2a be e0 14 1f 3e b1 95 df bc
       -0.026120795 -0.1669731 0.15535307 -0.027293058
0000e0 a4 55 20 3d 24 f5 8b bb 9d b0 80 bd c9 f2 bc bd
       0.039144173 -0.0042711664 -0.06283686 -0.09225995
0000f0 77 e6 58 bd 7a 4e 8a ba 3f ee 29 be 0a 88 0a 3e
       -0.052954163 -0.0010551952 -0.1659479 0.13528457
000100 d6 8d 0f 3e 51 51 34 3e 06 93 01 3e 61 8b 4d 3e
       0.1401895 0.17609145 0.12653741 0.200727
000110 69 6e 0d 3e 0c 04 9a 3d e1 ea 16 3e 2e df f1 bd
       0.1381165 0.07520303 0.14738037 -0.11810146
000120 cb b7 33 be 30 f0 bf 3d 89 77 c2 3d 19 67 fd bd
       -0.1755058 0.09371984 0.09495456 -0.1237318
000130 6e cc 9c bc 6e 30 26 3e 6a 22 30 bd cd 69 2b 3d
       -0.019140448 0.16229412 -0.04300157 0.041848946
000140 a4 1b 0b 3d d5 cd c0 bd fd 6b d3 b9 3e aa d7 3d
       0.033961907 -0.09414259 -0.00040325514 0.10530518
000150 c5 a5 13 be c3 3f 1b bd 3e 4e 48 bd ae 20 38 3e
       -0.14418705 -0.037902605 -0.048902743 0.17981216
000160 2b 5f fe 3d d9 93 61 3d 68 34 ab bd 4e 38 dd bd
       0.124204956 0.05507264 -0.08359605 -0.10801755
000170 d8 44 cf bd 86 0a 30 3d a5 03 12 3e a6 02 36 3e
       -0.10120553 0.042978786 0.14259203 0.17774448
000180 e2 88 b9 3d 9f 07 75 3d 0f ea 19 be af 08 a0 3d
       0.090593114 0.05982172 -0.15030693 0.07814156
000190 d0 d9 2f 3e 88 38 05 be 8a 34 ee bc 20 5c f4 bd
       0.17172933 -0.13009846 -0.029077787 -0.11931634
0001a0 9e 72 aa 3c c5 a8 17 3d 3f d3 43 bd 19 00 5f bd
       0.020806607 0.037026186 -0.04780888 -0.054443453
0001b0 23 29 dc 3d 12 ea 7d ba b0 33 e4 3d 25 32 5c bd
       0.10750034 -0.0009686063 0.11142671 -0.05375876
0001c0 48 a9 ed ba 86 ea ad 3d 15 b1 b9 3d fc 91 21 3e
       -0.0018132115 0.084919974 0.09066979 0.15778345
0001d0 98 ad 09 3e 29 1d b2 bd 26 32 41 bb 72 68 67 3c
       0.13445127 -0.08696968 -0.0029479354 0.014124023
0001e0 6f 37 ef 3d 9b 55 d8 bd 7b 42 e3 3c 08 ff ae 3d
       0.11680495 -0.10563203 0.027741661 0.08544737
0001f0 fb f8 de bd 30 02 03 be fa e1 11 be b2 52 3f bd
       -0.10887333 -0.12793803 -0.1424636 -0.046709724
000200 e4 19 8c bd 69 22 fd 3d ea 77 9e bd 9e c9 5f 3e
       -0.06840876 0.12360079 -0.077377155 0.21854255
000210 42 c3 20 bd 64 8b 7c 3d 77 5e b8 3d 17 46 f7 3d
       -0.039248712 0.06165637 0.09002393 0.120739155
000220 21 5b 6f bb f8 60 3e 3e 57 d6 d4 3d 08 65 84 bd
       -0.0036522823 0.18591678 0.103924446 -0.06464583
000230 93 66 04 bd 1b 17 04 3e 9e 80 5b bd 2c 9a 8b bd
       -0.032324385 0.12899439 -0.053589456 -0.06816515
000240 bd 11 02 3e fd 88 12 3d d9 b9 10 be 47 a8 7d 3d
       0.12702079 0.035775173 -0.14133395 0.06192806
000250 04 c6 03 3e 02 b4 33 bd d9 fa 35 bc 1b d0 e5 3b
       0.12868506 -0.04387284 -0.01110717 0.0070133335
000260 99 a0 eb 3d c8 ef 03 3d 05 c5 91 bc 41 4a 13 be
       0.11505241 0.032211095 -0.017794142 -0.14383794
000270 7b 10 20 3e f5 63 d1 3d 56 2c ab bd b9 9f 2d 3e
       0.15631287 0.102241434 -0.08358066 0.1695546
000280 ea f3 4b 3d 67 bd f2 3b f9 89 1b 3d 23 40 3e be
       0.04979316 0.0074078324 0.037973378 -0.18579154
000290 a6 98 42 be 05 f4 83 3b 4b 68 a0 bd e5 2b 92 3d
       -0.19003543 0.004026892 -0.07832392 0.071372785
0002a0 f7 30 71 3c da d2 be bd 56 c3 95 bd f9 0a cc 3d
       0.014721147 -0.093175605 -0.07312648 0.0996303
0002b0 49 64 05 3e 44 3d 81 3e eb 0a 0e 3e f2 70 e6 bd
       0.13026537 0.25242054 0.13871352 -0.11252011
0002c0 de 9d b4 bd 70 fd e2 3d 00 7d 17 be c5 fc bb bd
       -0.08819173 0.110834956 -0.14793777 -0.09179071
0002d0 74 22 4e 3d bd 1a f9 bd b6 25 4c bd 90 f0 2b 3d
       0.050325826 -0.12163303 -0.04984065 0.041977465
0002e0 b8 61 d4 3d a4 f7 17 bd ed bc d8 bd 7d 34 85 3d
       0.10370201 -0.037101403 -0.1058291 0.06504152
0002f0 f0 ca b1 3c ce 68 1e 3d de c2 84 bd 99 e7 1f 3e
       0.021703213 0.03867417 -0.064824805 0.15615691
000300 76 77 9c bd 63 56 67 bd 6c 18 c6 3d 49 0b 5d be
       -0.07639973 -0.05647887 0.09672627 -0.21586336
000310 7e 75 e8 bd 50 26 0d 3d c6 34 db bb 07 05 20 be
       -0.11350535 0.034460366 -0.0066896407 -0.15626918
000320 c0 09 f7 bd 65 64 3e bd b8 c6 d3 bb ad 69 0a be
       -0.120624065 -0.046482462 -0.006462898 -0.13516875
000330 5e 63 70 3c 5b 3d d7 3d 15 71 1b be df 04 b5 bc
       0.0146721285 0.105097495 -0.15179856 -0.02209705
000340 fe f2 37 bd 48 23 1c be ce 81 4a bd 7e e9 3c 3d
       -0.04490947 -0.15247834 -0.049440198 0.046121113
000350 a4 54 4c bc 2f 32 98 3d 43 8d a8 bd 1b 83 d2 3d
       -0.012471352 0.07431447 -0.082300685 0.10278913
000360 a2 21 26 be bc 86 8d 3d 05 4f 2f 3e 38 cd bb bd
       -0.16223767 0.06910464 0.17119987 -0.09170002
000370 01 73 3f 3d b1 42 14 3e 15 00 08 3e 29 a2 b6 bd
       0.046740536 0.14478566 0.13281281 -0.08917648
000380 24 52 f7 3d de e1 d7 3d dc 01 c0 bd 91 4e a8 bd
       0.12076214 0.105411276 -0.09375355 -0.0821811
000390 14 db 19 be d0 23 5a bd e8 df 89 bd 5c 03 f1 bd
       -0.15024978 -0.05325681 -0.0673216 -0.11768219
0003a0 b2 90 1a be 2d bd ff 3c a6 64 2c be f4 b3 aa 3d
       -0.1509426 0.031218136 -0.1683527 0.083351046
0003b0 12 0e 19 be 02 db 0d be 06 db 22 3e bf d9 4b 3c
       -0.14946774 -0.13853076 0.15903863 0.012442051
0003c0 b0 b3 12 3e 32 3a 0a 3e 8e 50 01 3d 54 b6 2b be
       0.14326358 0.13498762 0.031570964 -0.16768771
0003d0 63 d3 54 bd 61 49 98 3c f9 09 9b bd 06 da 7d ba
       -0.051959407 0.018589677 -0.075702615 -0.0009683672
0003e0 0b e7 0b be 13 51 20 3d 6a b0 75 3d 15 28 bf bd
       -0.13662355 0.03913982 0.059982695 -0.09333817
0003f0 59 63 11 bd b0 b5 c5 bd 40 87 99 bd 18 fb e5 bc
       -0.035495136 -0.09653795 -0.074965 -0.028073832

encoder_layers.0.bias f4 [16]
000000 8b e6 86 bd 5a 8a a4 3c 7a 1c 12 3d f5 54 1c 3c
       -0.06586941 0.020085502 0.03567169 0.00954174
000010 6a 96 7f 3d 4e 0f 45 be 65 d8 26 be d9 b2 07 3e
       0.062399305 -0.1924412 -0.16293485 0.13251819
000020 16 03 16 3e 72 40 34 be 66 55 0a bd 5b 1c 2e be
       0.14649615 -0.17602709 -0.03377285 -0.17003004
000030 e7 c6 2d be 1f 7e f7 bd 45 4b 29 bd dd a7 45 bd
       -0.16970406 -0.120846026 -0.04133155 -0.04825579

encoder_layers.1.weight f4 [8, 16]
000000 68 cb aa bd bf 67 22 be c4 7b ae 3d 76 f2 b9 bd
       -0.08339578 -0.15859888 0.085197 -0.09079449
000010 8c 27 6a 3e 2d 32 3a be 4d 95 78 3e c2 1b 14 3e
       0.22866648 -0.18183203 0.24275704 0.14463714
000020 48 6a ee bc 22 8c d6 3d 36 21 9d bd c7 e7 dd 3d
       -0.029103413 0.10475947 -0.0767235 0.10835224
000030 e6 dd 84 3e 7f b6 2d be 70 fd 5e be 32 82 77 be
       0.25950545 -0.16964148 -0.21776366 -0.2417076
000040 4d e3 08 3e 96 58 65 bd b7 f9 f2 bb 6b 4b 84 3c
       0.13367958 -0.055992685 -0.0074150222 0.016149243
000050 cc 4f 42 3d 2d ec 3a 3d 54 a9 d9 bc 2c 19 d8 bd
       0.04743938 0.04563539 -0.02657 -0.10551676
000060 a5 58 72 3e a4 80 eb bd e3 58 48 bd 95 38 58 bd
       0.23666628 -0.114991456 -0.048912894 -0.052788336
000070 b0 78 19 be 3e 91 03 3e f1 fd 6b be 86 29 6e 3e
       -0.14987445 0.12848374 -0.2304609 0.23258027
000080 3b 0a 66 3e 58 db e6 3d 5d 6f 84 bd 74 d2 5a 3e
       0.2246484 0.11272305 -0.06466553 0.21369344
000090 63 05 36 3e 27 69 09 3e 91 e0 23 3e 11 53 96 bd
       0.17775492 0.13419019 0.16003634 -0.073400624
0000a0 6a f1 3b 3e 81 dd 0b 3e b3 4c 3f be c0 74 40 3e
       0.18353811 0.13658716 -0.18681602 0.18794537
0000b0 4e fb e5 3c ce bd 59 3d 73 59 36 be d5 48 7a 3e
       0.028073933 0.053159527 -0.1780756 0.24441846
0000c0 dd 32 ee 3d 5e 96 ae bd 6e 74 b5 3c c7 76 49 3e
       0.11630795 -0.08524774 0.022150245 0.19674216
0000d0 18 3b 44 3e 97 a4 e3 bd 10 b7 be bd ed 52 dc bd
       0.19163167 -0.111153774 -0.0931226 -0.10758004
0000e0 ee d7 5c bc 43 1a b4 3d ab cd ce 3b ed ef 47 bd
       -0.013479216 0.087940715 0.0063111386 -0.048812795
0000f0 a2 a2 a4 3d 64 b0 81 3e e8 25 b3 3c 0c 7f c8 3d
       0.08038832 0.25329888 0.021868661 0.09789857
000100 f7 70 d8 3c 44 31 d8 bd 4d ef 86 3d ff b6 11 be
       0.026421053 -0.10556272 0.06588612 -0.14229964
000110 17 90 1a be 10 28 56 3e 89 17 34 3d fa b6 b7 3d
       -0.15094028 0.2091372 0.043967757 0.08970447
000120 4e ae bb bc 12 0e eb bd e4 3a aa bd f9 80 c5 bc
       -0.022910263 -0.11477293 -0.08312014 -0.02410935
000130 c8 c6 1c 3b 0f cd c6 bd 74 7f 0f bd 12 62 23 be
       0.0023922194 -0.097070806 -0.03503366 -0.1595538
000140 12 dc 8e 3e f3 d6 e0 bc 2a 75 b8 bd e3 30 8d 3d
       0.27902275 -0.027446246 -0.09006722 0.0689409
000150 a8 32 eb 3d a3 ce 21 3e 05 d0 2a 3e 7d fe b0 3d
       0.11484271 0.15801482 0.16680916 0.0864229
000160 5b e3 32 3e 0b 1f ce 3d ad 23 00 bd eb 39 88 3d
       0.17469542 0.10064515 -0.031284023 0.06651672
000170 31 06 ae bc 57 bf a4 bc 8a 07 5f be d0 e9 02 be
       -0.021243187 -0.02011077 -0.2178022 -0.12784505
000180 85 9c ff bd ac 00 77 be cc 10 05 3e 6e 19 5e 3d
       -0.124810256 -0.2412135 0.12994689 0.05422347
000190 09 e3 3c 3e f2 e2 1e 3d 7d 9a 4a be 2a a9 eb bd
       0.18445982 0.03879065 -0.19785495 -0.11506875
0001a0 42 64 8b 3d b6 73 15 3c 52 cc 1a 3e 20 6a 8c bd
       0.06806232 0.009121826 0.15117005 -0.06856179
0001b0 0d f5 50 3e f9 1c 1b 3e ea 17 2c be 94 fc 3d 3e
       0.2040598 0.15147771 -0.16805997 0.18553382
0001c0 28 59 c5 3d 05 e1 11 be ce 75 4b 3e 38 70 82 be
       0.09636146 -0.14245994 0.19869158 -0.2547624
0001d0 71 28 bc bd 93 36 31 be f3 41 f4 3d bf 32 30 3e
       -0.09187401 -0.17305975 0.11926641 0.17206858
0001e0 99 e2 85 3d 1e a0 cb bd ac 37 9b 3d 6a 7e 5f 3e
       0.06537361 -0.09942649 0.07578978 0.21825567
0001f0 ae 6b 98 bd fa ed 0b 3e ae 8e d9 3d 18 c0 90 bd
       -0.07442413 0.13665 0.10622917 -0.07067889

encoder_layers.1.bias f4 [8]
000000 5e 36 1a be fd 76 70 3c 0d 22 50 3c 66 b4 7e bd
       -0.15059802 0.0146768065 0.012703431 -0.06218376
000010 9b 1e 44 3e 98 51 02 be 94 d4 5a 3e 97 47 7e be
       0.191523 -0.12726438 0.21370155 -0.24831997

encoder_layers.2.weight f4 [4, 8]
000000 84 ec 8c 3e a7 a0 9d be 3f ff d5 3d b7 3a 73 be
       0.27524197 -0.3078663 0.10449075 -0.23752867
000010 3f c8 df bd cf 3f fd bd b1 1a 9d 3e b4 b1 8d 3e
       -0.10926866 -0.12365686 0.30684426 0.2767464
000020 9e cb d7 3d 3e 08 9b 3d cf 53 28 be 29 8f 8e bd
       0.10536884 0.075699314 -0.1643822 -0.069608994
000030 88 6d 5d be 74 f0 45 3e cc 5b 4d 3e 94 eb 58 3d
       -0.21623814 0.19330007 0.20054549 0.05295904
000040 9b 96 d0 3d 44 af 20 3e 7c 65 10 be d2 18 61 3d
       0.10184976 0.15691859 -0.14101213 0.05495531
000050 df e8 31 be a5 64 a3 bc cd fc a3 be ee a8 59 3e
       -0.1737399 -0.019945452 -0.3202881 0.21255848
000060 eb ad a2 3e ec e0 aa bd ec 2e a6 3d 29 9b 86 be
       0.31773314 -0.08343682 0.081144184 -0.26290253
000070 fe 58 61 be a0 48 ab 3d b5 a8 48 3e 1a 05 7d bd
       -0.22006604 0.083634615 0.19595607 -0.061772443

encoder_layers.2.bias f4 [4]
000000 ad 75 1e 3e 41 0b a2 3e 73 aa 24 3e 93 cf 90 be
       0.15474577 0.3164921 0.16080646 -0.28283367

encoder_layers.3.weight f4 [2, 4]
000000 f9 48 b7 be c8 10 59 3d 64 ee 9c 3e 94 90 55 be
       -0.3579786 0.05299452 0.30650628 -0.20855933
000010 99 d6 fc 3e 4a d1 8e be 26 5c 6e 3e 30 d8 0c be
       0.49382475 -0.2789405 0.2327734 -0.13754344

encoder_layers.3.bias f4 [2]
000000 38 ca 0f be 58 9d 6b be
       -0.14041984 -0.2300924

decoder_layers.0.weight f4 [4, 2]
000000 04 fa d1 be 61 3f 28 3f 6b 11 28 bf 3d 0c 42 be
       -0.4101106 0.6572171 -0.6565158 -0.18949981
000010 e3 91 06 3f c6 09 86 3e b4 dc 1c 3f b1 f1 6f bd
       0.52566355 0.26179332 0.61274266 -0.058580104

decoder_layers.0.bias f4 [4]
000000 e1 85 36 3f 93 e0 a3 3e 02 ed 01 3e c8 de ae 3d
       0.71298033 0.32007274 0.12688068 0.08538586

decoder_layers.1.weight f4 [8, 4]
000000 61 70 83 bd 14 3a 24 be ba 60 83 be 4b c9 4d 3e
       -0.06417919 -0.1603778 -0.25659734 0.20096318
000010 1c 9f 76 3e b0 52 63 be 5e 6e d2 be 60 83 9c 3c
       0.24084133 -0.22199512 -0.41099828 0.019105613
000020 af 76 1a bd 15 6a f9 3b c8 06 e4 be 75 dc 17 bd
       -0.03771084 0.007611523 -0.44536424 -0.03707548
000030 67 8e b0 3e 4a b4 80 3e 2a 9c 8a 3e 85 3f d4 3d
       0.34483644 0.2513755 0.2707227 0.10363678
000040 cc bf 98 be 90 7f 86 3d 30 cc f3 3e f4 32 38 3e
       -0.2983383 0.06567299 0.4761672 0.17988187
000050 16 83 82 be 68 c9 f7 be c0 dd 65 bc e0 d2 47 bd
       -0.25490636 -0.48395848 -0.01402992 -0.04878509
000060 4b 80 01 bf 61 22 e3 3e df 5a ff be e7 51 01 3f
       -0.50586385 0.44362167 -0.49874017 0.505156
000070 80 10 bd 3d 42 4f ec be 4c 70 ef be e0 fb 0f be
       0.09231663 -0.4615422 -0.46765363 -0.14060926

decoder_layers.1.bias f4 [8]
000000 cb 2f ef 3e be f2 bb be aa 2c 3f 3e 5d 0b 01 3f
       0.4671615 -0.36708635 0.18669382 0.50407964
000010 24 a6 9f be 00 aa d4 be de 97 1d 3e 00 28 e9 bc
       -0.31181443 -0.4153595 0.15389964 -0.028461456

decoder_layers.2.weight f4 [16, 8]
000000 16 d8 b2 3e f3 2b 1e be 78 68 32 bd 5c 12 62 be
       0.34930485 -0.15446453 -0.04355666 -0.22077316
000010 1b 14 ec bd 74 d1 cb bd a6 45 42 3e 5f b0 67 be
       -0.11527272 -0.099520594 0.18971881 -0.22625874
000020 64 34 16 be ea b7 19 3e 1f 5f 09 3e 13 6c 30 3e
       -0.14668423 0.15011564 0.13415192 0.17228727
000030 a7 45 92 3d 0b f6 7e 3d 13 fe 36 be 4b db 9d be
       0.071421914 0.062246364 -0.17870359 -0.3083137
000040 7e 7c 88 3e d3 1f 84 3d 9a 91 fe bb 6b 60 ac 3d
       0.2665748 0.064513825 -0.007768822 0.08416828
000050 55 cd 5a 3e 22 e5 6b be 80 00 9d be e5 9e 39 be
       0.2136739 -0.23036626 -0.30664444 -0.1812702
000060 9e 73 04 3d e5 7c 74 bd e2 08 27 3e a4 f0 5e 3e
       0.032336824 -0.05968942 0.16311982 0.21771485
000070 38 98 40 be 50 d4 41 be 38 63 69 3e 49 5a 62 3e
       -0.18808067 -0.18928647 0.22791755 0.22104754
000080 7a eb 17 3e d0 d7 a3 3e b3 60 1f be 4d e4 6a 3e
       0.14835921 0.3200059 -0.15564232 0.22938652
000090 72 d3 f1 bd 6f d7 9d 3e 62 2c f7 3d e9 4c 6f be
       -0.11807908 0.30828425 0.12069012 -0.23369183
0000a0 2a 7b 9e be a5 50 0e bd ac a3 81 be 02 77 6e 3e
       -0.30953342 -0.034744877 -0.25320184 0.23287585
0000b0 2d c7 4a 3e f7 92 b8 3e 0a 49 90 be 06 d6 a7 3e
       0.19802542 0.36049625 -0.28180724 0.32780474
0000c0 74 15 ac 3b 88 cc 99 3e 10 d5 92 3e 2a 49 83 bd
       0.005251581 0.30038857 0.2867818 -0.06410439
0000d0 0d 96 4a be 65 1f 42 be 9d 7a 2d be 47 df c4 be
       -0.19783802 -0.18957289 -0.16941305 -0.38451597
0000e0 8b 2b 3f be 7b 90 f5 bd e4 43 8a 3e 06 1c 45 bd
       -0.18668954 -0.11990448 0.2700492 -0.04812243
0000f0 b1 26 61 3e 32 ab 73 3c 4c 48 9f bc 6b 1d a0 3d
       0.21987416 0.014872359 -0.019443654 0.07818111
000100 5b 2a 86 be 7d 32 43 3e e2 54 97 be 42 e2 9d be
       -0.2620419 0.19062229 -0.29556948 -0.30836684
000110 c3 77 22 be c4 c2 a4 3e 97 d2 3c 3d 54 83 9c 3e
       -0.15865998 0.32179844 0.04609927 0.30568945
000120 e3 ca 90 3b 97 ee 39 3c 42 ef 94 3e b1 f6 f5 3d
       0.004418717 0.011348388 0.2908879 0.12009943
000130 26 9a e3 be 07 87 3f 3e 46 45 b0 3d 31 5a f7 be
       -0.44453543 0.18703853 0.08606963 -0.48310998
000140 bd 38 84 3e a2 09 c5 3d 8c ee ab bb ba 06 bd be
       0.25824538 0.09620978 -0.005246943 -0.36919194
000150 f4 51 83 3e 49 71 80 be 9b f5 a6 be 6c cf de 3d
       0.25648463 -0.2508643 -0.32609257 0.10879406
000160 10 b5 af be 4f cf 1d bc 5f a2 74 be 4f c2 fb bb
       -0.34317827 -0.009631946 -0.23890065 -0.0076830755
000170 c4 4a cc 3c 05 b4 a0 3e de 31 1f be ee c9 99 3e
       0.024937995 0.31387344 -0.15546367 0.30036873
000180 8d 1d a7 3d be 70 9a 3e e3 b4 52 3d b4 70 99 be
       0.08159933 0.3016414 0.05144204 -0.29968798
000190 a1 dd 8d 3e f9 c1 5e be 2b 6f 9c be 1c 94 6d 3e
       0.27708152 -0.21753682 -0.30553564 0.2320103
0001a0 20 6a b4 bd fa 3f 02 3e ce 0f 8f be 3a c8 b8 be
       -0.08809304 0.12719718 -0.27941746 -0.3609026
0001b0 1d 86 3f 3d ea d5 9b bd 1a 80 84 3e 56 de 13 be
       0.04675876 -0.0760916 0.25878984 -0.14440283
0001c0 7e ae a5 3d 2c 5b a4 be b0 c0 dd bc a5 22 20 3e
       0.08089922 -0.3210081 -0.02706942 0.15638216
0001d0 08 51 0e 3e e3 b2 06 be 19 f5 76 3d 1f 3f 96 3e
       0.13898098 -0.13154177 0.060292337 0.29345033
0001e0 56 72 03 3e fb 4f 0e be ad ab 27 3e 65 26 a3 3c
       0.12836584 -0.13897698 0.16374083 0.019915769
0001f0 5b 1c aa be 8e 3b 83 bd 9c 02 3c be 38 e8 a8 be
       -0.33224759 -0.064078435 -0.1836037 -0.3298967

decoder_layers.2.bias f4 [16]
000000 46 22 9f be 16 ce 58 bd ad 33 2b 3e 4f d2 17 be
       -0.31080836 -0.052930914 0.16718931 -0.1482632
000010 0f c0 44 be b5 cd 0a bd c5 3c e5 3c 84 b9 ad 3e
       -0.1921389 -0.033887584 0.027983079 0.339306
000020 e3 01 ea bd d7 8d 0d be 26 26 5b 3e 07 f3 8c be
       -0.11426141 -0.13823639 0.21401271 -0.27529165
000030 8a 04 1e be bc 17 27 be 58 a1 69 3d 67 32 c6 3b
       -0.15431419 -0.16317648 0.057038635 0.006048489

decoder_layers.3.weight f4 [32, 16]
000000 8e 85 1b 3e b4 44 aa 3c 91 25 1f 3e 4a 04 82 3e
       0.15187666 0.020784713 0.15541674 0.25393897
000010 4a 2a 0b be d4 8f 2f be 3a 65 ec 3d 2a e3 3d 3e
       -0.13590351 -0.1714471 0.11542745 0.18543687
000020 ef 48 e6 bd 52 03 59 be ee 80 c0 3d da 32 21 3b
       -0.1124438 -0.21192673 0.093995914 0.002459696
000030 a2 c2 3c 3e f3 25 23 bc f4 9b 6f be 17 96 83 3e
       0.18433622 -0.009957778 -0.23399335 0.25700447
000040 60 d0 38 3e 43 99 44 3e 6f 54 30 be 9b de 92 bd
       0.18048239 0.1919909 -0.17219709 -0.07171365
000050 93 7a 18 3e ac 7c 5e 3e 21 d4 da 3d 41 52 84 3d
       0.14890508 0.21727246 0.10684992 0.06461001
000060 29 2b 65 3d 51 c0 e4 3d a5 2a bf bc ef 31 6d be
       0.055949364 0.11169494 -0.023335764 -0.2316358
000070 ed 2b 3a 3e 67 09 66 3e a4 10 58 be 18 a2 23 3e
       0.18180819 0.22464524 -0.21100098 0.15979803
000080 f9 cd 48 3e 87 2c 28 3e 71 56 fe bd 47 e9 1d be
       0.19609822 0.16423236 -0.12418831 -0.1542102
000090 b3 df 46 3e 8e 63 02 be d8 f3 0a bd bc dd 43 be
       0.19421272 -0.1273329 -0.033923954 -0.19127554
0000a0 cb 67 96 bc 3f d4 03 be 87 db fe bd 84 82 4a be
       -0.01836004 -0.12873934 -0.12444215 -0.1977635
0000b0 36 12 4c be 81 62 3c 3d 83 04 75 3e 15 0c f5 bd
       -0.19928822 0.04599238 0.23927502 -0.11965195
0000c0 c1 dc 33 3e 02 38 06 3e 3c b3 34 be 88 12 6e 3e
       0.1756468 0.13107303 -0.17646497 0.23249257
0000d0 64 de 22 3e 67 45 8e 3b 74 df 09 bd 13 80 33 3d
       0.15905148 0.0043417695 -0.033660367 0.043823313
0000e0 4b 98 5e be 77 84 7e 3e 60 da 0e 3e a8 75 9e bd
       -0.21737783 0.24855219 0.13950491 -0.07737285
0000f0 7e 6d c7 bd 32 5b 36 be cd a7 0b 3e 71 dc 73 be
       -0.09737681 -0.17808226 0.1363823 -0.2381456
000100 2e 2d 96 3c 95 5c 67 3e 60 fa 0c be d3 dd 06 3e
       0.01833209 0.22593911 -0.13767385 0.13170557
000110 ff 48 3a be ea 69 c7 bd 63 4d 3d be 5d 13 5a bd
       -0.18191908 -0.097369984 -0.18486552 -0.053241123
000120 cb 66 e2 bd 4d be c0 bd 78 80 f2 3d fc 37 82 3e
       -0.110547625 -0.09411297 0.1184091 0.25433338
000130 68 dc 0c 3e d4 20 fb bd 9f 16 20 3d 7f e2 43 bd
       0.13755953 -0.12262121 0.039084073 -0.047823425
000140 20 2e 4e be 30 72 6c 3d 9d a4 84 3e 45 63 7b 3e
       -0.20134783 0.057726085 0.2590684 0.24549587
000150 dc 60 10 bd e5 60 2d 3e 0d 1a 84 3d b3 97 e5 3d
       -0.035248622 0.16931494 0.06450281 0.11210575
000160 d5 f6 08 3e e4 62 01 be 4b 99 75 be 04 99 70 bc
       0.13375409 -0.1263538 -0.23984258 -0.014684919
000170 54 29 a0 bd b7 c2 b0 3d 7c d5 16 bd b9 6f 0e 3e
       -0.07820383 0.08630889 -0.03682469 0.13909806
000180 72 43 e8 bd ce e3 69 3d 74 45 3f bd 75 2a 50 be
       -0.11340989 0.057102017 -0.046697095 -0.20328696
000190 aa a6 45 be 90 43 b7 bd 52 0f 45 3e fc 8d 87 3c
       -0.19301859 -0.089484334 0.19244125 0.016547196
0001a0 0d 9d 8d bd f5 71 39 3e 1b 64 07 3e 17 59 ca bc
       -0.06914721 0.18109877 0.13221781 -0.024700684
0001b0 85 9c 67 be 90 0a 52 3e 37 cf a4 3c 88 27 f8 bc
       -0.22618301 0.20511842 0.020118339 -0.030292287
0001c0 c4 a5 0a 3d 70 9f 2e 3e 3d 5f ea bd 0a 66 bf bd
       0.033849493 0.17053008 -0.114439465 -0.09345634
0001d0 f3 90 c1 bc ab 85 c9 bd 5b a5 70 be 00 5d 38 3e
       -0.023628687 -0.09839948 -0.23500578 0.18004227
0001e0 9e 98 c1 3c 12 4a 83 3e a8 45 ce 3d ff 96 84 ba
       0.023632344 0.2564245 0.100718796 -0.0010115801
0001f0 a8 c1 f0 3d a5 94 76 3e 57 8d 41 be e1 b8 ec bc
       0.11755687 0.24080141 -0.18901573 -0.02889675
000200 03 da bb bd 81 02 f5 bc ed e5 35 3d 70 25 5a be
       -0.09172442 -0.02990842 0.044408727 -0.21303344
000210 f1 9e 46 be ad 8f dd bc f6 3f d6 3d e1 20 46 3d
       -0.19396569 -0.027046049 0.10461418 0.0483712
000220 eb da d2 bd 5f 6a 7b 3e 7b 80 dc 3c 18 7c 55 3e
       -0.102956615 0.24552296 0.026916733 0.2084812
000230 a7 f6 87 3d 63 48 c4 bb e8 34 c2 bd 72 ae 7d be
       0.06638842 -0.0059900745 -0.09482747 -0.24773577
000240 ad 07 72 be 8e 9b 21 3e 59 b0 89 bd f8 6e 3d 3e
       -0.2363574 0.15781996 -0.06723089 0.18499362
000250 71 20 6f be b0 45 79 3c ca bd 6d 3e 0d 98 79 bd
       -0.23352219 0.015214369 0.2321693 -0.060936023
000260 30 be b7 bb a3 d4 19 3e aa fc a1 3d 4c ac 33 be
       -0.005607389 0.1502252 0.0790952 -0.17546195
000270 5e 29 41 be 7b 17 ce 3d 39 43 4f be 14 72 f7 3c
       -0.18863437 0.10063072 -0.20240487 0.030205764
000280 93 11 30 3e ec d3 02 be c5 af f5 bd 69 20 83 be
       0.17194204 -0.12776154 -0.11996416 -0.25610664
000290 0b bd 3b 3e 47 1b 86 3d fe ba 33 be 14 a8 50 3d
       0.18333833 0.065481715 -0.175518 0.05094154
0002a0 11 4d 3b 3d 56 77 5f 3e fc 86 06 bc b0 45 3c be
       0.045727793 0.21822867 -0.008210894 -0.18385959
0002b0 f9 08 90 3d f6 d5 f5 3c 26 89 6e be db dd 39 be
       0.070329614 0.030009251 -0.23294505 -0.18151037
0002c0 04 4e 18 be f9 6c 31 bd ed df d2 bd 67 aa 68 bd
       -0.1487351 -0.043316815 -0.10296617 -0.056803133
0002d0 37 e9 01 3e 7a 4e 54 bd da 38 d7 bd 58 45 1b 3e
       0.1268662 -0.051832654 -0.105088905 0.15163171
0002e0 1b f6 e8 3b e1 5d ae bd d3 f0 4a be 65 cc b9 bc
       0.007109416 -0.08514 -0.1981843 -0.02268047
0002f0 ef 87 9f bd 34 55 03 be 12 0d 0b 3e 39 61 69 3d
       -0.07789599 -0.12825471 0.13579205 0.056977484
000300 bc b9 bd 3d a2 39 6f 3e 2c 72 db 3d 46 c6 03 3d
       0.09263942 0.23361829 0.10715136 0.03217151
000310 c1 ae ed bd 03 a0 61 be 10 a2 30 3e b4 be 5b 3c
       -0.11605597 -0.22033696 0.17249322 0.013412166
000320 5c 9d 0e 3e 02 f4 54 be 4a 81 f2 3d a4 29 af 3d
       0.13927215 -0.20796207 0.11841066 0.08552864
000330 53 50 7f be 42 40 1c be 4c 7b 60 bc 8c e3 83 3e
       -0.24932985 -0.15258887 -0.013701271 0.25759542
000340 ac 9b 6f be ec a8 73 be e4 c7 35 be 21 33 56 3d
       -0.23399228 -0.23794907 -0.17752033 0.052294854
000350 76 0f 1e be 2e 23 1f be b9 1e 6f 3e 53 45 32 bc
       -0.15435585 -0.15540764 0.23351564 -0.010880786
000360 cd cd 56 bd b4 d8 26 be b1 8c 6d bc fb 87 2c 3d
       -0.05244236 -0.16293603 -0.0144988755 0.04212187
000370 3f 30 0d bc 4c ce b3 bc 41 29 6d 3e 5e ec 0d 3e
       -0.00861746 -0.021948956 0.23160268 0.13859698
000380 5b 71 98 3d 64 12 9d 3d a5 d9 25 3e cd 3b b3 3c
       0.07443496 0.07669523 0.16196306 0.021879101
000390 76 86 3b be 68 1e fb bd ff 53 67 3d b1 a7 dd bd
       -0.18313012 -0.12261659 0.05647659 -0.10823
0003a0 39 7b 67 be 7d 08 71 3e d8 94 01 3d 47 23 31 be
       -0.226056 0.23538394 0.03163609 -0.17298613
0003b0 e2 39 14 3d 26 53 5e 3d 53 6a 6d be 50 d8 77 3d
       0.036188014 0.054278515 -0.2318509 0.060509026
0003c0 6b ef f5 bd 70 58 b5 bc e7 35 86 3e d9 2a 93 3d
       -0.12008556 -0.022136897 0.26213 0.07185907
0003d0 07 d3 75 3e b6 ab 10 be 9b d2 59 bd 5f 6b 3c 3e
       0.24006282 -0.14128003 -0.053179365 0.18400334
0003e0 f1 ac 15 be dd df 84 be a2 08 f4 3d 10 a9 e2 3c
       -0.14616753 -0.25952044 0.11915709 0.027668506
0003f0 1d c6 26 be ab 89 2f be 04 fa ed bd 36 f7 1f be
       -0.16286512 -0.1714236 -0.11619952 -0.15621647

decoder_layers.3.bias f4 [32]
000000 ec 6c 1d 3e 99 8a 39 3e 18 9f 2f 3d 8f af f1 3d
       0.15373582 0.18119277 0.042876333 0.11801063
000010 46 b5 f7 bd 95 eb 6a be 95 50 6c 3e 82 47 5c 3e
       -0.12095122 -0.2294143 0.23077615 0.21511653
000020 8f 1a 35 be 52 11 75 be ae e1 aa 3d f2 51 f2 3d
       -0.17685913 -0.23932388 0.08343826 0.11832036
000030 3b 43 b8 3c 78 5e 8b 3d f4 0c f0 3d bb 84 62 be
       0.022492995 0.06805128 0.117212206 -0.22120945
000040 b8 b7 d9 3b e9 be 7f bd 47 10 ca bc fd 48 3d be
       0.0066442154 -0.062437925 -0.024665965 -0.18484874
000050 19 13 17 bd ed 05 3b be ff f1 64 be 93 56 7e be
       -0.036883447 -0.1826398 -0.22357939 -0.24837713
000060 3a 03 3e 3e 10 5f a4 bd 71 9e ec bd 5d 8e 32 3e
       0.18555918 -0.08025944 -0.11553658 0.1743712
000070 25 08 1a bd f3 d9 15 3e 2d 57 74 3e ee 74 eb 3c
       -0.037605423 0.14633922 0.2386138 0.02874228

proj_out.weight f4 [1, 32]
000000 6a 96 19 3e 0a 8b 8e 3d 65 37 0d 3e 94 eb 48 bd
       0.14998785 0.06960113 0.13790663 -0.04905279
000010 e2 6a 35 3d 44 f0 13 3e d4 2a 18 be f2 5c fd bc
       0.044291385 0.14447123 -0.14860088 -0.030928109
000020 22 df bb bd 59 fb 28 bd 02 e5 a4 bd 26 85 24 be
       -0.091734186 -0.04125533 -0.08051492 -0.16066417
000030 4a 66 fa 3d 30 b3 a6 bd ac ec 6f bb ef 4c e2 3d
       0.12226541 -0.08139646 -0.0036609573 0.1104983
000040 ad 0b 94 bd 8e 49 3c be 65 dc d6 3d d4 16 98 3d
       -0.072287895 -0.18387434 0.10491256 0.07426229
000050 c6 1a 05 bc 56 e2 5b 3d 0d bb a9 bd a0 5e 50 bd
       -0.008124059 0.053682648 -0.0828763 -0.05087149
000060 b6 8e c4 bd db b5 13 3d d4 b1 1f 3e 77 c4 4b bd
       -0.095975325 0.036062103 0.1559518 -0.04974791
000070 37 88 ce 3d f8 f9 e5 ba e9 52 e7 3d 0b 7a 3a 3d
       0.10084575 -0.001754581 0.11295111 0.045526545

bottleneck.embedding.weight f4 [4, 4]
000000 51 9a 71 81 c7 59 00 00 35 c0 12 00 ca 85 00 80
       -4.4375426e-38 3.2206e-41 1.72199e-39 -4.7994e-41
000010 fa b2 35 be 30 2b 1c 3d ca 94 73 3e 6a 34 11 be
       -0.17744055 0.038127124 0.23787227 -0.1418015
000020 70 46 c4 3c b6 60 18 be f2 ac 68 be a0 e8 22 3d
       0.023959368 -0.14880642 -0.22722223 0.03977263
000030 4c d7 46 3e 8a b8 46 be 2a 79 08 3e 4c 2f 8b bd
       0.19418067 -0.19406334 0.1332747 -0.067961305
